…
I0727 15:32:49.189761 30424 net.cpp:50] Initializing net from parameters: 
name: "BuildingDetection"
state {
  phase: TRAIN
}
layer {
  name: "input_sat"
  type: "Data"
  top: "input_sat"
  include {
    phase: TRAIN
  }
  transform_param {
    scale: 0.00390625
  }
  data_param {
    source: "../../../data/mass_buildings/lmdb/train_sat_256"
    batch_size: 18
    backend: LMDB
  }
}
layer {
  name: "input_map"
  type: "Data"
  top: "input_map"
  include {
    phase: TRAIN
  }
  data_param {
    source: "../../../data/mass_buildings/lmdb/train_map_256"
    batch_size: 18
    backend: LMDB
  }
}
layer {
  name: "conv1_1"
  type: "Convolution"
  bottom: "input_sat"
  top: "conv1_1"
  param {
    lr_mult: 1
    decay_mult: 1
  }
  param {
    lr_mult: 2
    decay_mult: 0
  }
  convolution_param {
    num_output: 64
    pad: 35
    kernel_size: 3
    engine: CAFFE
  }
}
layer {
  name: "relu1_1"
  type: "ReLU"
  bottom: "conv1_1"
  top: "conv1_1"
}
layer {
  name: "conv1_2"
  type: "Convolution"
  bottom: "conv1_1"
  top: "conv1_2"
  param {
    lr_mult: 1
    decay_mult: 1
  }
  param {
    lr_mult: 2
    decay_mult: 0
  }
  convolution_param {
    num_output: 64
    pad: 1
    kernel_size: 3
    engine: CAFFE
  }
}
layer {
  name: "relu1_2"
  type: "ReLU"
  bottom: "conv1_2"
  top: "conv1_2"
}
layer {
  name: "pool1"
  type: "Pooling"
  bottom: "conv1_2"
  top: "pool1"
  pooling_param {
    pool: MAX
    kernel_size: 2
    stride: 2
  }
}
layer {
  name: "conv2_1"
  type: "Convolution"
  bottom: "pool1"
  top: "conv2_1"
  param {
    lr_mult: 1
    decay_mult: 1
  }
  param {
    lr_mult: 2
    decay_mult: 0
  }
  convolution_param {
    num_output: 128
    pad: 1
    kernel_size: 3
    engine: CAFFE
  }
}
layer {
  name: "relu2_1"
  type: "ReLU"
  bottom: "conv2_1"
  top: "conv2_1"
}
layer {
  name: "conv2_2"
  type: "Convolution"
  bottom: "conv2_1"
  top: "conv2_2"
  param {
    lr_mult: 1
    decay_mult: 1
  }
  param {
    lr_mult: 2
    decay_mult: 0
  }
  convolution_param {
    num_output: 128
    pad: 1
    kernel_size: 3
    engine: CAFFE
  }
}
layer {
  name: "relu2_2"
  type: "ReLU"
  bottom: "conv2_2"
  top: "conv2_2"
}
layer {
  name: "pool2"
  type: "Pooling"
  bottom: "conv2_2"
  top: "pool2"
  pooling_param {
    pool: MAX
    kernel_size: 2
    stride: 2
  }
}
layer {
  name: "conv3_1"
  type: "Convolution"
  bottom: "pool2"
  top: "conv3_1"
  param {
    lr_mult: 1
    decay_mult: 1
  }
  param {
    lr_mult: 2
    decay_mult: 0
  }
  convolution_param {
    num_output: 256
    pad: 1
    kernel_size: 3
    engine: CAFFE
  }
}
layer {
  name: "relu3_1"
  type: "ReLU"
  bottom: "conv3_1"
  top: "conv3_1"
}
layer {
  name: "conv3_2"
  type: "Convolution"
  bottom: "conv3_1"
  top: "conv3_2"
  param {
    lr_mult: 1
    decay_mult: 1
  }
  param {
    lr_mult: 2
    decay_mult: 0
  }
  convolution_param {
    num_output: 256
    pad: 1
    kernel_size: 3
    engine: CAFFE
  }
}
layer {
  name: "relu3_2"
  type: "ReLU"
  bottom: "conv3_2"
  top: "conv3_2"
}
layer {
  name: "conv3_3"
  type: "Convolution"
  bottom: "conv3_2"
  top: "conv3_3"
  param {
    lr_mult: 1
    decay_mult: 1
  }
  param {
    lr_mult: 2
    decay_mult: 0
  }
  convolution_param {
    num_output: 256
    pad: 1
    kernel_size: 3
    engine: CAFFE
  }
}
layer {
  name: "relu3_3"
  type: "ReLU"
  bottom: "conv3_3"
  top: "conv3_3"
}
layer {
  name: "pool3"
  type: "Pooling"
  bottom: "conv3_3"
  top: "pool3"
  pooling_param {
    pool: MAX
    kernel_size: 2
    stride: 2
  }
}
layer {
  name: "conv4_1"
  type: "Convolution"
  bottom: "pool3"
  top: "conv4_1"
  param {
    lr_mult: 1
    decay_mult: 1
  }
  param {
    lr_mult: 2
    decay_mult: 0
  }
  convolution_param {
    num_output: 512
    pad: 1
    kernel_size: 3
    engine: CAFFE
  }
}
layer {
  name: "relu4_1"
  type: "ReLU"
  bottom: "conv4_1"
  top: "conv4_1"
}
layer {
  name: "conv4_2"
  type: "Convolution"
  bottom: "conv4_1"
  top: "conv4_2"
  param {
    lr_mult: 1
    decay_mult: 1
  }
  param {
    lr_mult: 2
    decay_mult: 0
  }
  convolution_param {
    num_output: 512
    pad: 1
    kernel_size: 3
    engine: CAFFE
  }
}
layer {
  name: "relu4_2"
  type: "ReLU"
  bottom: "conv4_2"
  top: "conv4_2"
}
layer {
  name: "conv4_3"
  type: "Convolution"
  bottom: "conv4_2"
  top: "conv4_3"
  param {
    lr_mult: 1
    decay_mult: 1
  }
  param {
    lr_mult: 2
    decay_mult: 0
  }
  convolution_param {
    num_output: 512
    pad: 1
    kernel_size: 3
    engine: CAFFE
  }
}
layer {
  name: "relu4_3"
  type: "ReLU"
  bottom: "conv4_3"
  top: "conv4_3"
}
layer {
  name: "pool4"
  type: "Pooling"
  bottom: "conv4_3"
  top: "pool4"
  pooling_param {
    pool: MAX
    kernel_size: 2
    stride: 2
  }
}
layer {
  name: "conv5_1"
  type: "Convolution"
  bottom: "pool4"
  top: "conv5_1"
  param {
    lr_mult: 1
    decay_mult: 1
  }
  param {
    lr_mult: 2
    decay_mult: 0
  }
  convolution_param {
    num_output: 512
    pad: 1
    kernel_size: 3
    engine: CAFFE
  }
}
layer {
  name: "relu5_1"
  type: "ReLU"
  bottom: "conv5_1"
  top: "conv5_1"
}
layer {
  name: "conv5_2"
  type: "Convolution"
  bottom: "conv5_1"
  top: "conv5_2"
  param {
    lr_mult: 1
    decay_mult: 1
  }
  param {
    lr_mult: 2
    decay_mult: 0
  }
  convolution_param {
    num_output: 512
    pad: 1
    kernel_size: 3
    engine: CAFFE
  }
}
layer {
  name: "relu5_2"
  type: "ReLU"
  bottom: "conv5_2"
  top: "conv5_2"
}
layer {
  name: "conv5_3"
  type: "Convolution"
  bottom: "conv5_2"
  top: "conv5_3"
  param {
    lr_mult: 1
    decay_mult: 1
  }
  param {
    lr_mult: 2
    decay_mult: 0
  }
  convolution_param {
    num_output: 512
    pad: 1
    kernel_size: 3
    engine: CAFFE
  }
}
layer {
  name: "relu5_3"
  type: "ReLU"
  bottom: "conv5_3"
  top: "conv5_3"
}
layer {
  name: "score-dsn1_1"
  type: "Convolution"
  bottom: "conv1_1"
  top: "score-dsn1_1-up"
  param {
    lr_mult: 0.1
    decay_mult: 1
  }
  param {
    lr_mult: 0.2
    decay_mult: 0
  }
  convolution_param {
    num_output: 1
    kernel_size: 1
    engine: CAFFE
  }
}
layer {
  name: "crop"
  type: "Crop"
  bottom: "score-dsn1_1-up"
  bottom: "input_sat"
  top: "upscore-dsn1_1"
}
layer {
  name: "score-dsn1_2"
  type: "Convolution"
  bottom: "conv1_2"
  top: "score-dsn1_2-up"
  param {
    lr_mult: 0.1
    decay_mult: 1
  }
  param {
    lr_mult: 0.2
    decay_mult: 0
  }
  convolution_param {
    num_output: 1
    kernel_size: 1
    engine: CAFFE
  }
}
layer {
  name: "crop"
  type: "Crop"
  bottom: "score-dsn1_2-up"
  bottom: "input_sat"
  top: "upscore-dsn1_2"
}
layer {
  name: "score-dsn2_1"
  type: "Convolution"
  bottom: "conv2_1"
  top: "score-dsn2_1"
  param {
    lr_mult: 0.1
    decay_mult: 1
  }
  param {
    lr_mult: 0.2
    decay_mult: 0
  }
  convolution_param {
    num_output: 1
    kernel_size: 1
    engine: CAFFE
  }
}
layer {
  name: "upsample_2-2_1"
  type: "Deconvolution"
  bottom: "score-dsn2_1"
  top: "score-dsn2_1-up"
  param {
    lr_mult: 0
    decay_mult: 1
  }
  param {
    lr_mult: 0
    decay_mult: 0
  }
  convolution_param {
    num_output: 1
    kernel_size: 4
    stride: 2
  }
}
layer {
  name: "crop"
  type: "Crop"
  bottom: "score-dsn2_1-up"
  bottom: "input_sat"
  top: "upscore-dsn2_1"
}
layer {
  name: "score-dsn2_2"
  type: "Convolution"
  bottom: "conv2_2"
  top: "score-dsn2_2"
  param {
    lr_mult: 0.1
    decay_mult: 1
  }
  param {
    lr_mult: 0.2
    decay_mult: 0
  }
  convolution_param {
    num_output: 1
    kernel_size: 1
    engine: CAFFE
  }
}
layer {
  name: "upsample_2-2_2"
  type: "Deconvolution"
  bottom: "score-dsn2_2"
  top: "score-dsn2_2-up"
  param {
    lr_mult: 0
    decay_mult: 1
  }
  param {
    lr_mult: 0
    decay_mult: 0
  }
  convolution_param {
    num_output: 1
    kernel_size: 4
    stride: 2
  }
}
layer {
  name: "crop"
  type: "Crop"
  bottom: "score-dsn2_2-up"
  bottom: "input_sat"
  top: "upscore-dsn2_2"
}
layer {
  name: "score-dsn3_1"
  type: "Convolution"
  bottom: "conv3_1"
  top: "score-dsn3_1"
  param {
    lr_mult: 0.1
    decay_mult: 1
  }
  param {
    lr_mult: 0.2
    decay_mult: 0
  }
  convolution_param {
    num_output: 1
    kernel_size: 1
    engine: CAFFE
  }
}
layer {
  name: "upsample_4-3_1"
  type: "Deconvolution"
  bottom: "score-dsn3_1"
  top: "score-dsn3_1-up"
  param {
    lr_mult: 0
    decay_mult: 1
  }
  param {
    lr_mult: 0
    decay_mult: 0
  }
  convolution_param {
    num_output: 1
    kernel_size: 8
    stride: 4
  }
}
layer {
  name: "crop"
  type: "Crop"
  bottom: "score-dsn3_1-up"
  bottom: "input_sat"
  top: "upscore-dsn3_1"
}
layer {
  name: "score-dsn3_2"
  type: "Convolution"
  bottom: "conv3_2"
  top: "score-dsn3_2"
  param {
    lr_mult: 0.1
    decay_mult: 1
  }
  param {
    lr_mult: 0.2
    decay_mult: 0
  }
  convolution_param {
    num_output: 1
    kernel_size: 1
    engine: CAFFE
  }
}
layer {
  name: "upsample_4-3_2"
  type: "Deconvolution"
  bottom: "score-dsn3_2"
  top: "score-dsn3_2-up"
  param {
    lr_mult: 0
    decay_mult: 1
  }
  param {
    lr_mult: 0
    decay_mult: 0
  }
  convolution_param {
    num_output: 1
    kernel_size: 8
    stride: 4
  }
}
layer {
  name: "crop"
  type: "Crop"
  bottom: "score-dsn3_2-up"
  bottom: "input_sat"
  top: "upscore-dsn3_2"
}
layer {
  name: "score-dsn3_3"
  type: "Convolution"
  bottom: "conv3_3"
  top: "score-dsn3_3"
  param {
    lr_mult: 0.1
    decay_mult: 1
  }
  param {
    lr_mult: 0.2
    decay_mult: 0
  }
  convolution_param {
    num_output: 1
    kernel_size: 1
    engine: CAFFE
  }
}
layer {
  name: "upsample_4-3_3"
  type: "Deconvolution"
  bottom: "score-dsn3_3"
  top: "score-dsn3_3-up"
  param {
    lr_mult: 0
    decay_mult: 1
  }
  param {
    lr_mult: 0
    decay_mult: 0
  }
  convolution_param {
    num_output: 1
    kernel_size: 8
    stride: 4
  }
}
layer {
  name: "crop"
  type: "Crop"
  bottom: "score-dsn3_3-up"
  bottom: "input_sat"
  top: "upscore-dsn3_3"
}
layer {
  name: "score-dsn4_1"
  type: "Convolution"
  bottom: "conv4_1"
  top: "score-dsn4_1"
  param {
    lr_mult: 0.1
    decay_mult: 1
  }
  param {
    lr_mult: 0.2
    decay_mult: 0
  }
  convolution_param {
    num_output: 1
    kernel_size: 1
    engine: CAFFE
  }
}
layer {
  name: "upsample_8-4_1"
  type: "Deconvolution"
  bottom: "score-dsn4_1"
  top: "score-dsn4_1-up"
  param {
    lr_mult: 0
    decay_mult: 1
  }
  param {
    lr_mult: 0
    decay_mult: 0
  }
  convolution_param {
    num_output: 1
    kernel_size: 16
    stride: 8
  }
}
layer {
  name: "crop"
  type: "Crop"
  bottom: "score-dsn4_1-up"
  bottom: "input_sat"
  top: "upscore-dsn4_1"
}
layer {
  name: "score-dsn4_2"
  type: "Convolution"
  bottom: "conv4_2"
  top: "score-dsn4_2"
  param {
    lr_mult: 0.1
    decay_mult: 1
  }
  param {
    lr_mult: 0.2
    decay_mult: 0
  }
  convolution_param {
    num_output: 1
    kernel_size: 1
    engine: CAFFE
  }
}
layer {
  name: "upsample_8-4_2"
  type: "Deconvolution"
  bottom: "score-dsn4_2"
  top: "score-dsn4_2-up"
  param {
    lr_mult: 0
    decay_mult: 1
  }
  param {
    lr_mult: 0
    decay_mult: 0
  }
  convolution_param {
    num_output: 1
    kernel_size: 16
    stride: 8
  }
}
layer {
  name: "crop"
  type: "Crop"
  bottom: "score-dsn4_2-up"
  bottom: "input_sat"
  top: "upscore-dsn4_2"
}
layer {
  name: "score-dsn4_3"
  type: "Convolution"
  bottom: "conv4_3"
  top: "score-dsn4_3"
  param {
    lr_mult: 0.1
    decay_mult: 1
  }
  param {
    lr_mult: 0.2
    decay_mult: 0
  }
  convolution_param {
    num_output: 1
    kernel_size: 1
    engine: CAFFE
  }
}
layer {
  name: "upsample_8-4_3"
  type: "Deconvolution"
  bottom: "score-dsn4_3"
  top: "score-dsn4_3-up"
  param {
    lr_mult: 0
    decay_mult: 1
  }
  param {
    lr_mult: 0
    decay_mult: 0
  }
  convolution_param {
    num_output: 1
    kernel_size: 16
    stride: 8
  }
}
layer {
  name: "crop"
  type: "Crop"
  bottom: "score-dsn4_3-up"
  bottom: "input_sat"
  top: "upscore-dsn4_3"
}
layer {
  name: "score-dsn5_1"
  type: "Convolution"
  bottom: "conv5_1"
  top: "score-dsn5_1"
  param {
    lr_mult: 0.1
    decay_mult: 1
  }
  param {
    lr_mult: 0.2
    decay_mult: 0
  }
  convolution_param {
    num_output: 1
    kernel_size: 1
    engine: CAFFE
  }
}
layer {
  name: "upsample_16-5_1"
  type: "Deconvolution"
  bottom: "score-dsn5_1"
  top: "score-dsn5_1-up"
  param {
    lr_mult: 0
    decay_mult: 1
  }
  param {
    lr_mult: 0
    decay_mult: 0
  }
  convolution_param {
    num_output: 1
    kernel_size: 32
    stride: 16
  }
}
layer {
  name: "crop"
  type: "Crop"
  bottom: "score-dsn5_1-up"
  bottom: "input_sat"
  top: "upscore-dsn5_1"
}
layer {
  name: "score-dsn5_2"
  type: "Convolution"
  bottom: "conv5_2"
  top: "score-dsn5_2"
  param {
    lr_mult: 0.1
    decay_mult: 1
  }
  param {
    lr_mult: 0.2
    decay_mult: 0
  }
  convolution_param {
    num_output: 1
    kernel_size: 1
    engine: CAFFE
  }
}
layer {
  name: "upsample_16-5_2"
  type: "Deconvolution"
  bottom: "score-dsn5_2"
  top: "score-dsn5_2-up"
  param {
    lr_mult: 0
    decay_mult: 1
  }
  param {
    lr_mult: 0
    decay_mult: 0
  }
  convolution_param {
    num_output: 1
    kernel_size: 32
    stride: 16
  }
}
layer {
  name: "crop"
  type: "Crop"
  bottom: "score-dsn5_2-up"
  bottom: "input_sat"
  top: "upscore-dsn5_2"
}
layer {
  name: "score-dsn5_3"
  type: "Convolution"
  bottom: "conv5_3"
  top: "score-dsn5_3"
  param {
    lr_mult: 0.1
    decay_mult: 1
  }
  param {
    lr_mult: 0.2
    decay_mult: 0
  }
  convolution_param {
    num_output: 1
    kernel_size: 1
    engine: CAFFE
  }
}
layer {
  name: "upsample_16-5_3"
  type: "Deconvolution"
  bottom: "score-dsn5_3"
  top: "score-dsn5_3-up"
  param {
    lr_mult: 0
    decay_mult: 1
  }
  param {
    lr_mult: 0
    decay_mult: 0
  }
  convolution_param {
    num_output: 1
    kernel_size: 32
    stride: 16
  }
}
layer {
  name: "crop"
  type: "Crop"
  bottom: "score-dsn5_3-up"
  bottom: "input_sat"
  top: "upscore-dsn5_3"
}
layer {
  name: "concat-conv-pooling"
  type: "Concat"
  bottom: "upscore-dsn1_1"
  bottom: "upscore-dsn1_2"
  bottom: "upscore-dsn2_1"
  bottom: "upscore-dsn2_2"
  bottom: "upscore-dsn3_1"
  bottom: "upscore-dsn3_2"
  bottom: "upscore-dsn3_3"
  bottom: "upscore-dsn4_1"
  bottom: "upscore-dsn4_2"
  bottom: "upscore-dsn4_3"
  bottom: "upscore-dsn5_1"
  bottom: "upscore-dsn5_2"
  bottom: "upscore-dsn5_3"
  top: "concat-conv-pooling"
  concat_param {
    concat_dim: 1
  }
}
layer {
  name: "new-score-weighting-conv-pooling"
  type: "Convolution"
  bottom: "concat-conv-pooling"
  top: "upscore-concat-conv-pooling"
  param {
    lr_mult: 0.01
    decay_mult: 1
  }
  param {
    lr_mult: 0.02
    decay_mult: 0
  }
  convolution_param {
    num_output: 1
    kernel_size: 1
    bias_filler {
      type: "constant"
      value: 0.2
    }
    engine: CAFFE
  }
}
layer {
  name: "predict_loss"
  type: "SigmoidCrossEntropyLoss"
  bottom: "upscore-concat-conv-pooling"
  bottom: "input_map"
  top: "predict_loss"
  loss_weight: 1
}
I0727 15:32:49.189997 30424 layer_factory.hpp:76] Creating layer input_sat
I0727 15:32:49.190284 30424 net.cpp:111] Creating Layer input_sat
I0727 15:32:49.190292 30424 net.cpp:434] input_sat -> input_sat
I0727 15:32:49.209568 30431 db_lmdb.cpp:22] Opened lmdb ../../../data/mass_buildings/lmdb/train_sat_256
I0727 15:32:49.233505 30424 data_layer.cpp:44] output data size: 18,3,256,256
I0727 15:32:49.931020 30424 net.cpp:156] Setting up input_sat
I0727 15:32:49.931053 30424 net.cpp:164] Top shape: 18 3 256 256 (3538944)
I0727 15:32:49.931061 30424 layer_factory.hpp:76] Creating layer input_sat_input_sat_0_split
I0727 15:32:49.931071 30424 net.cpp:111] Creating Layer input_sat_input_sat_0_split
I0727 15:32:49.931073 30424 net.cpp:478] input_sat_input_sat_0_split <- input_sat
I0727 15:32:49.931079 30424 net.cpp:434] input_sat_input_sat_0_split -> input_sat_input_sat_0_split_0
I0727 15:32:49.931087 30424 net.cpp:434] input_sat_input_sat_0_split -> input_sat_input_sat_0_split_1
…
I0727 15:32:49.931124 30424 net.cpp:434] input_sat_input_sat_0_split -> input_sat_input_sat_0_split_9
I0727 15:32:49.931128 30424 net.cpp:434] input_sat_input_sat_0_split -> input_sat_input_sat_0_split_10
I0727 15:32:49.931133 30424 net.cpp:434] input_sat_input_sat_0_split -> input_sat_input_sat_0_split_11
I0727 15:32:49.931138 30424 net.cpp:434] input_sat_input_sat_0_split -> input_sat_input_sat_0_split_12
I0727 15:32:49.931143 30424 net.cpp:434] input_sat_input_sat_0_split -> input_sat_input_sat_0_split_13
I0727 15:32:49.931150 30424 net.cpp:156] Setting up input_sat_input_sat_0_split
I0727 15:32:49.931154 30424 net.cpp:164] Top shape: 18 3 256 256 (3538944)
I0727 15:32:49.931157 30424 net.cpp:164] Top shape: 18 3 256 256 (3538944)
I0727 15:32:49.931160 30424 net.cpp:164] Top shape: 18 3 256 256 (3538944)
I0727 15:32:49.931164 30424 net.cpp:164] Top shape: 18 3 256 256 (3538944)
I0727 15:32:49.931166 30424 net.cpp:164] Top shape: 18 3 256 256 (3538944)
I0727 15:32:49.931169 30424 net.cpp:164] Top shape: 18 3 256 256 (3538944)
I0727 15:32:49.931172 30424 net.cpp:164] Top shape: 18 3 256 256 (3538944)
I0727 15:32:49.931175 30424 net.cpp:164] Top shape: 18 3 256 256 (3538944)
I0727 15:32:49.931179 30424 net.cpp:164] Top shape: 18 3 256 256 (3538944)
I0727 15:32:49.931181 30424 net.cpp:164] Top shape: 18 3 256 256 (3538944)
I0727 15:32:49.931185 30424 net.cpp:164] Top shape: 18 3 256 256 (3538944)
I0727 15:32:49.931187 30424 net.cpp:164] Top shape: 18 3 256 256 (3538944)
I0727 15:32:49.931190 30424 net.cpp:164] Top shape: 18 3 256 256 (3538944)
I0727 15:32:49.931193 30424 net.cpp:164] Top shape: 18 3 256 256 (3538944)
I0727 15:32:49.931195 30424 layer_factory.hpp:76] Creating layer input_map
I0727 15:32:49.931228 30424 net.cpp:111] Creating Layer input_map
I0727 15:32:49.931244 30424 net.cpp:434] input_map -> input_map
I0727 15:32:49.931788 30433 db_lmdb.cpp:22] Opened lmdb ../../../data/mass_buildings/lmdb/train_map_256
I0727 15:32:49.942001 30424 data_layer.cpp:44] output data size: 18,1,256,256
I0727 15:32:49.946588 30424 net.cpp:156] Setting up input_map
I0727 15:32:49.946624 30424 net.cpp:164] Top shape: 18 1 256 256 (1179648)
I0727 15:32:49.946630 30424 layer_factory.hpp:76] Creating layer conv1_1
I0727 15:32:49.946638 30424 net.cpp:111] Creating Layer conv1_1
I0727 15:32:49.946642 30424 net.cpp:478] conv1_1 <- input_sat_input_sat_0_split_0
I0727 15:32:49.946648 30424 net.cpp:434] conv1_1 -> conv1_1
I0727 15:32:49.947481 30424 net.cpp:156] Setting up conv1_1
I0727 15:32:49.947491 30424 net.cpp:164] Top shape: 18 64 324 324 (120932352)
I0727 15:32:49.947500 30424 layer_factory.hpp:76] Creating layer relu1_1
I0727 15:32:49.947507 30424 net.cpp:111] Creating Layer relu1_1
I0727 15:32:49.947516 30424 net.cpp:478] relu1_1 <- conv1_1
I0727 15:32:49.947520 30424 net.cpp:420] relu1_1 -> conv1_1 (in-place)
I0727 15:32:53.166918 30424 net.cpp:156] Setting up relu1_1
I0727 15:32:53.166950 30424 net.cpp:164] Top shape: 18 64 324 324 (120932352)
I0727 15:32:53.166975 30424 layer_factory.hpp:76] Creating layer conv1_1_relu1_1_0_split
I0727 15:32:53.166985 30424 net.cpp:111] Creating Layer conv1_1_relu1_1_0_split
I0727 15:32:53.166988 30424 net.cpp:478] conv1_1_relu1_1_0_split <- conv1_1
I0727 15:32:53.166995 30424 net.cpp:434] conv1_1_relu1_1_0_split -> conv1_1_relu1_1_0_split_0
I0727 15:32:53.167011 30424 net.cpp:434] conv1_1_relu1_1_0_split -> conv1_1_relu1_1_0_split_1
I0727 15:32:53.167016 30424 net.cpp:156] Setting up conv1_1_relu1_1_0_split
I0727 15:32:53.167021 30424 net.cpp:164] Top shape: 18 64 324 324 (120932352)
I0727 15:32:53.167023 30424 net.cpp:164] Top shape: 18 64 324 324 (120932352)
I0727 15:32:53.167026 30424 layer_factory.hpp:76] Creating layer conv1_2
I0727 15:32:53.167032 30424 net.cpp:111] Creating Layer conv1_2
I0727 15:32:53.167035 30424 net.cpp:478] conv1_2 <- conv1_1_relu1_1_0_split_0
I0727 15:32:53.167039 30424 net.cpp:434] conv1_2 -> conv1_2
I0727 15:32:53.167426 30424 net.cpp:156] Setting up conv1_2
I0727 15:32:53.167435 30424 net.cpp:164] Top shape: 18 64 324 324 (120932352)
I0727 15:32:53.167444 30424 layer_factory.hpp:76] Creating layer relu1_2
I0727 15:32:53.167450 30424 net.cpp:111] Creating Layer relu1_2
I0727 15:32:53.167454 30424 net.cpp:478] relu1_2 <- conv1_2
I0727 15:32:53.167457 30424 net.cpp:420] relu1_2 -> conv1_2 (in-place)
I0727 15:32:53.167578 30424 net.cpp:156] Setting up relu1_2
I0727 15:32:53.167587 30424 net.cpp:164] Top shape: 18 64 324 324 (120932352)
I0727 15:32:53.167589 30424 layer_factory.hpp:76] Creating layer conv1_2_relu1_2_0_split
I0727 15:32:53.167594 30424 net.cpp:111] Creating Layer conv1_2_relu1_2_0_split
I0727 15:32:53.167598 30424 net.cpp:478] conv1_2_relu1_2_0_split <- conv1_2
I0727 15:32:53.167601 30424 net.cpp:434] conv1_2_relu1_2_0_split -> conv1_2_relu1_2_0_split_0
I0727 15:32:53.167606 30424 net.cpp:434] conv1_2_relu1_2_0_split -> conv1_2_relu1_2_0_split_1
I0727 15:32:53.167611 30424 net.cpp:156] Setting up conv1_2_relu1_2_0_split
I0727 15:32:53.167615 30424 net.cpp:164] Top shape: 18 64 324 324 (120932352)
I0727 15:32:53.167618 30424 net.cpp:164] Top shape: 18 64 324 324 (120932352)
I0727 15:32:53.167621 30424 layer_factory.hpp:76] Creating layer pool1
I0727 15:32:53.167626 30424 net.cpp:111] Creating Layer pool1
I0727 15:32:53.167629 30424 net.cpp:478] pool1 <- conv1_2_relu1_2_0_split_0
I0727 15:32:53.167632 30424 net.cpp:434] pool1 -> pool1
I0727 15:32:53.167675 30424 net.cpp:156] Setting up pool1
I0727 15:32:53.167678 30424 net.cpp:164] Top shape: 18 64 162 162 (30233088)
I0727 15:32:53.167681 30424 layer_factory.hpp:76] Creating layer conv2_1
I0727 15:32:53.167686 30424 net.cpp:111] Creating Layer conv2_1
I0727 15:32:53.167688 30424 net.cpp:478] conv2_1 <- pool1
I0727 15:32:53.167692 30424 net.cpp:434] conv2_1 -> conv2_1
I0727 15:32:53.167984 30424 net.cpp:156] Setting up conv2_1
I0727 15:32:53.167992 30424 net.cpp:164] Top shape: 18 128 162 162 (60466176)
I0727 15:32:53.167999 30424 layer_factory.hpp:76] Creating layer relu2_1
I0727 15:32:53.168004 30424 net.cpp:111] Creating Layer relu2_1
I0727 15:32:53.168007 30424 net.cpp:478] relu2_1 <- conv2_1
I0727 15:32:53.168011 30424 net.cpp:420] relu2_1 -> conv2_1 (in-place)
I0727 15:32:53.168050 30424 net.cpp:156] Setting up relu2_1
I0727 15:32:53.168054 30424 net.cpp:164] Top shape: 18 128 162 162 (60466176)
I0727 15:32:53.168057 30424 layer_factory.hpp:76] Creating layer conv2_1_relu2_1_0_split
I0727 15:32:53.168061 30424 net.cpp:111] Creating Layer conv2_1_relu2_1_0_split
I0727 15:32:53.168063 30424 net.cpp:478] conv2_1_relu2_1_0_split <- conv2_1
I0727 15:32:53.168067 30424 net.cpp:434] conv2_1_relu2_1_0_split -> conv2_1_relu2_1_0_split_0
I0727 15:32:53.168072 30424 net.cpp:434] conv2_1_relu2_1_0_split -> conv2_1_relu2_1_0_split_1
I0727 15:32:53.168081 30424 net.cpp:156] Setting up conv2_1_relu2_1_0_split
I0727 15:32:53.168086 30424 net.cpp:164] Top shape: 18 128 162 162 (60466176)
I0727 15:32:53.168088 30424 net.cpp:164] Top shape: 18 128 162 162 (60466176)
I0727 15:32:53.168092 30424 layer_factory.hpp:76] Creating layer conv2_2
I0727 15:32:53.168095 30424 net.cpp:111] Creating Layer conv2_2
I0727 15:32:53.168098 30424 net.cpp:478] conv2_2 <- conv2_1_relu2_1_0_split_0
I0727 15:32:53.168102 30424 net.cpp:434] conv2_2 -> conv2_2
I0727 15:32:53.168193 30424 net.cpp:156] Setting up conv2_2
I0727 15:32:53.168198 30424 net.cpp:164] Top shape: 18 128 162 162 (60466176)
I0727 15:32:53.168203 30424 layer_factory.hpp:76] Creating layer relu2_2
I0727 15:32:53.168207 30424 net.cpp:111] Creating Layer relu2_2
I0727 15:32:53.168210 30424 net.cpp:478] relu2_2 <- conv2_2
I0727 15:32:53.168213 30424 net.cpp:420] relu2_2 -> conv2_2 (in-place)
I0727 15:32:53.168334 30424 net.cpp:156] Setting up relu2_2
I0727 15:32:53.168340 30424 net.cpp:164] Top shape: 18 128 162 162 (60466176)
I0727 15:32:53.168344 30424 layer_factory.hpp:76] Creating layer conv2_2_relu2_2_0_split
I0727 15:32:53.168349 30424 net.cpp:111] Creating Layer conv2_2_relu2_2_0_split
I0727 15:32:53.168351 30424 net.cpp:478] conv2_2_relu2_2_0_split <- conv2_2
I0727 15:32:53.168355 30424 net.cpp:434] conv2_2_relu2_2_0_split -> conv2_2_relu2_2_0_split_0
I0727 15:32:53.168359 30424 net.cpp:434] conv2_2_relu2_2_0_split -> conv2_2_relu2_2_0_split_1
I0727 15:32:53.168365 30424 net.cpp:156] Setting up conv2_2_relu2_2_0_split
I0727 15:32:53.168368 30424 net.cpp:164] Top shape: 18 128 162 162 (60466176)
I0727 15:32:53.168371 30424 net.cpp:164] Top shape: 18 128 162 162 (60466176)
I0727 15:32:53.168375 30424 layer_factory.hpp:76] Creating layer pool2
I0727 15:32:53.168380 30424 net.cpp:111] Creating Layer pool2
I0727 15:32:53.168382 30424 net.cpp:478] pool2 <- conv2_2_relu2_2_0_split_0
I0727 15:32:53.168385 30424 net.cpp:434] pool2 -> pool2
I0727 15:32:53.168423 30424 net.cpp:156] Setting up pool2
I0727 15:32:53.168427 30424 net.cpp:164] Top shape: 18 128 81 81 (15116544)
I0727 15:32:53.168431 30424 layer_factory.hpp:76] Creating layer conv3_1
I0727 15:32:53.168436 30424 net.cpp:111] Creating Layer conv3_1
I0727 15:32:53.168438 30424 net.cpp:478] conv3_1 <- pool2
I0727 15:32:53.168442 30424 net.cpp:434] conv3_1 -> conv3_1
I0727 15:32:53.169119 30424 net.cpp:156] Setting up conv3_1
I0727 15:32:53.169129 30424 net.cpp:164] Top shape: 18 256 81 81 (30233088)
I0727 15:32:53.169137 30424 layer_factory.hpp:76] Creating layer relu3_1
I0727 15:32:53.169140 30424 net.cpp:111] Creating Layer relu3_1
I0727 15:32:53.169144 30424 net.cpp:478] relu3_1 <- conv3_1
I0727 15:32:53.169148 30424 net.cpp:420] relu3_1 -> conv3_1 (in-place)
I0727 15:32:53.169190 30424 net.cpp:156] Setting up relu3_1
I0727 15:32:53.169195 30424 net.cpp:164] Top shape: 18 256 81 81 (30233088)
I0727 15:32:53.169198 30424 layer_factory.hpp:76] Creating layer conv3_1_relu3_1_0_split
I0727 15:32:53.169203 30424 net.cpp:111] Creating Layer conv3_1_relu3_1_0_split
I0727 15:32:53.169204 30424 net.cpp:478] conv3_1_relu3_1_0_split <- conv3_1
I0727 15:32:53.169209 30424 net.cpp:434] conv3_1_relu3_1_0_split -> conv3_1_relu3_1_0_split_0
I0727 15:32:53.169214 30424 net.cpp:434] conv3_1_relu3_1_0_split -> conv3_1_relu3_1_0_split_1
I0727 15:32:53.169220 30424 net.cpp:156] Setting up conv3_1_relu3_1_0_split
I0727 15:32:53.169224 30424 net.cpp:164] Top shape: 18 256 81 81 (30233088)
I0727 15:32:53.169226 30424 net.cpp:164] Top shape: 18 256 81 81 (30233088)
I0727 15:32:53.169229 30424 layer_factory.hpp:76] Creating layer conv3_2
I0727 15:32:53.169234 30424 net.cpp:111] Creating Layer conv3_2
I0727 15:32:53.169236 30424 net.cpp:478] conv3_2 <- conv3_1_relu3_1_0_split_0
I0727 15:32:53.169240 30424 net.cpp:434] conv3_2 -> conv3_2
I0727 15:32:53.169929 30424 net.cpp:156] Setting up conv3_2
I0727 15:32:53.169939 30424 net.cpp:164] Top shape: 18 256 81 81 (30233088)
I0727 15:32:53.169945 30424 layer_factory.hpp:76] Creating layer relu3_2
I0727 15:32:53.169948 30424 net.cpp:111] Creating Layer relu3_2
I0727 15:32:53.169955 30424 net.cpp:478] relu3_2 <- conv3_2
I0727 15:32:53.169958 30424 net.cpp:420] relu3_2 -> conv3_2 (in-place)
I0727 15:32:53.169999 30424 net.cpp:156] Setting up relu3_2
I0727 15:32:53.170003 30424 net.cpp:164] Top shape: 18 256 81 81 (30233088)
I0727 15:32:53.170006 30424 layer_factory.hpp:76] Creating layer conv3_2_relu3_2_0_split
I0727 15:32:53.170011 30424 net.cpp:111] Creating Layer conv3_2_relu3_2_0_split
I0727 15:32:53.170013 30424 net.cpp:478] conv3_2_relu3_2_0_split <- conv3_2
I0727 15:32:53.170017 30424 net.cpp:434] conv3_2_relu3_2_0_split -> conv3_2_relu3_2_0_split_0
I0727 15:32:53.170022 30424 net.cpp:434] conv3_2_relu3_2_0_split -> conv3_2_relu3_2_0_split_1
I0727 15:32:53.170027 30424 net.cpp:156] Setting up conv3_2_relu3_2_0_split
I0727 15:32:53.170030 30424 net.cpp:164] Top shape: 18 256 81 81 (30233088)
I0727 15:32:53.170033 30424 net.cpp:164] Top shape: 18 256 81 81 (30233088)
I0727 15:32:53.170035 30424 layer_factory.hpp:76] Creating layer conv3_3
I0727 15:32:53.170040 30424 net.cpp:111] Creating Layer conv3_3
I0727 15:32:53.170043 30424 net.cpp:478] conv3_3 <- conv3_2_relu3_2_0_split_0
I0727 15:32:53.170047 30424 net.cpp:434] conv3_3 -> conv3_3
I0727 15:32:53.170758 30424 net.cpp:156] Setting up conv3_3
I0727 15:32:53.170768 30424 net.cpp:164] Top shape: 18 256 81 81 (30233088)
I0727 15:32:53.170773 30424 layer_factory.hpp:76] Creating layer relu3_3
I0727 15:32:53.170778 30424 net.cpp:111] Creating Layer relu3_3
I0727 15:32:53.170780 30424 net.cpp:478] relu3_3 <- conv3_3
I0727 15:32:53.170784 30424 net.cpp:420] relu3_3 -> conv3_3 (in-place)
I0727 15:32:53.170908 30424 net.cpp:156] Setting up relu3_3
I0727 15:32:53.170917 30424 net.cpp:164] Top shape: 18 256 81 81 (30233088)
I0727 15:32:53.170919 30424 layer_factory.hpp:76] Creating layer conv3_3_relu3_3_0_split
I0727 15:32:53.170924 30424 net.cpp:111] Creating Layer conv3_3_relu3_3_0_split
I0727 15:32:53.170927 30424 net.cpp:478] conv3_3_relu3_3_0_split <- conv3_3
I0727 15:32:53.170930 30424 net.cpp:434] conv3_3_relu3_3_0_split -> conv3_3_relu3_3_0_split_0
I0727 15:32:53.170935 30424 net.cpp:434] conv3_3_relu3_3_0_split -> conv3_3_relu3_3_0_split_1
I0727 15:32:53.170940 30424 net.cpp:156] Setting up conv3_3_relu3_3_0_split
I0727 15:32:53.170944 30424 net.cpp:164] Top shape: 18 256 81 81 (30233088)
I0727 15:32:53.170948 30424 net.cpp:164] Top shape: 18 256 81 81 (30233088)
I0727 15:32:53.170950 30424 layer_factory.hpp:76] Creating layer pool3
I0727 15:32:53.170955 30424 net.cpp:111] Creating Layer pool3
I0727 15:32:53.170958 30424 net.cpp:478] pool3 <- conv3_3_relu3_3_0_split_0
I0727 15:32:53.170961 30424 net.cpp:434] pool3 -> pool3
I0727 15:32:53.171000 30424 net.cpp:156] Setting up pool3
I0727 15:32:53.171005 30424 net.cpp:164] Top shape: 18 256 41 41 (7746048)
I0727 15:32:53.171007 30424 layer_factory.hpp:76] Creating layer conv4_1
I0727 15:32:53.171011 30424 net.cpp:111] Creating Layer conv4_1
I0727 15:32:53.171015 30424 net.cpp:478] conv4_1 <- pool3
I0727 15:32:53.171018 30424 net.cpp:434] conv4_1 -> conv4_1
I0727 15:32:53.172556 30424 net.cpp:156] Setting up conv4_1
I0727 15:32:53.172574 30424 net.cpp:164] Top shape: 18 512 41 41 (15492096)
I0727 15:32:53.172581 30424 layer_factory.hpp:76] Creating layer relu4_1
I0727 15:32:53.172588 30424 net.cpp:111] Creating Layer relu4_1
I0727 15:32:53.172591 30424 net.cpp:478] relu4_1 <- conv4_1
I0727 15:32:53.172596 30424 net.cpp:420] relu4_1 -> conv4_1 (in-place)
I0727 15:32:53.172644 30424 net.cpp:156] Setting up relu4_1
I0727 15:32:53.172648 30424 net.cpp:164] Top shape: 18 512 41 41 (15492096)
I0727 15:32:53.172652 30424 layer_factory.hpp:76] Creating layer conv4_1_relu4_1_0_split
I0727 15:32:53.172655 30424 net.cpp:111] Creating Layer conv4_1_relu4_1_0_split
I0727 15:32:53.172658 30424 net.cpp:478] conv4_1_relu4_1_0_split <- conv4_1
I0727 15:32:53.172662 30424 net.cpp:434] conv4_1_relu4_1_0_split -> conv4_1_relu4_1_0_split_0
I0727 15:32:53.172667 30424 net.cpp:434] conv4_1_relu4_1_0_split -> conv4_1_relu4_1_0_split_1
I0727 15:32:53.172672 30424 net.cpp:156] Setting up conv4_1_relu4_1_0_split
I0727 15:32:53.172679 30424 net.cpp:164] Top shape: 18 512 41 41 (15492096)
I0727 15:32:53.172683 30424 net.cpp:164] Top shape: 18 512 41 41 (15492096)
I0727 15:32:53.172685 30424 layer_factory.hpp:76] Creating layer conv4_2
I0727 15:32:53.172690 30424 net.cpp:111] Creating Layer conv4_2
I0727 15:32:53.172693 30424 net.cpp:478] conv4_2 <- conv4_1_relu4_1_0_split_0
I0727 15:32:53.172698 30424 net.cpp:434] conv4_2 -> conv4_2
I0727 15:32:53.175850 30424 net.cpp:156] Setting up conv4_2
I0727 15:32:53.175879 30424 net.cpp:164] Top shape: 18 512 41 41 (15492096)
I0727 15:32:53.175890 30424 layer_factory.hpp:76] Creating layer relu4_2
I0727 15:32:53.175897 30424 net.cpp:111] Creating Layer relu4_2
I0727 15:32:53.175902 30424 net.cpp:478] relu4_2 <- conv4_2
I0727 15:32:53.175907 30424 net.cpp:420] relu4_2 -> conv4_2 (in-place)
I0727 15:32:53.175963 30424 net.cpp:156] Setting up relu4_2
I0727 15:32:53.175968 30424 net.cpp:164] Top shape: 18 512 41 41 (15492096)
I0727 15:32:53.175971 30424 layer_factory.hpp:76] Creating layer conv4_2_relu4_2_0_split
I0727 15:32:53.175977 30424 net.cpp:111] Creating Layer conv4_2_relu4_2_0_split
I0727 15:32:53.175981 30424 net.cpp:478] conv4_2_relu4_2_0_split <- conv4_2
I0727 15:32:53.175984 30424 net.cpp:434] conv4_2_relu4_2_0_split -> conv4_2_relu4_2_0_split_0
I0727 15:32:53.175989 30424 net.cpp:434] conv4_2_relu4_2_0_split -> conv4_2_relu4_2_0_split_1
I0727 15:32:53.175994 30424 net.cpp:156] Setting up conv4_2_relu4_2_0_split
I0727 15:32:53.175998 30424 net.cpp:164] Top shape: 18 512 41 41 (15492096)
I0727 15:32:53.176002 30424 net.cpp:164] Top shape: 18 512 41 41 (15492096)
I0727 15:32:53.176004 30424 layer_factory.hpp:76] Creating layer conv4_3
I0727 15:32:53.176009 30424 net.cpp:111] Creating Layer conv4_3
I0727 15:32:53.176012 30424 net.cpp:478] conv4_3 <- conv4_2_relu4_2_0_split_0
I0727 15:32:53.176017 30424 net.cpp:434] conv4_3 -> conv4_3
I0727 15:32:53.179123 30424 net.cpp:156] Setting up conv4_3
I0727 15:32:53.179155 30424 net.cpp:164] Top shape: 18 512 41 41 (15492096)
I0727 15:32:53.179164 30424 layer_factory.hpp:76] Creating layer relu4_3
I0727 15:32:53.179172 30424 net.cpp:111] Creating Layer relu4_3
I0727 15:32:53.179177 30424 net.cpp:478] relu4_3 <- conv4_3
I0727 15:32:53.179183 30424 net.cpp:420] relu4_3 -> conv4_3 (in-place)
I0727 15:32:53.179370 30424 net.cpp:156] Setting up relu4_3
I0727 15:32:53.179378 30424 net.cpp:164] Top shape: 18 512 41 41 (15492096)
I0727 15:32:53.179381 30424 layer_factory.hpp:76] Creating layer conv4_3_relu4_3_0_split
I0727 15:32:53.179385 30424 net.cpp:111] Creating Layer conv4_3_relu4_3_0_split
I0727 15:32:53.179388 30424 net.cpp:478] conv4_3_relu4_3_0_split <- conv4_3
I0727 15:32:53.179394 30424 net.cpp:434] conv4_3_relu4_3_0_split -> conv4_3_relu4_3_0_split_0
I0727 15:32:53.179399 30424 net.cpp:434] conv4_3_relu4_3_0_split -> conv4_3_relu4_3_0_split_1
I0727 15:32:53.179404 30424 net.cpp:156] Setting up conv4_3_relu4_3_0_split
I0727 15:32:53.179407 30424 net.cpp:164] Top shape: 18 512 41 41 (15492096)
I0727 15:32:53.179410 30424 net.cpp:164] Top shape: 18 512 41 41 (15492096)
I0727 15:32:53.179414 30424 layer_factory.hpp:76] Creating layer pool4
I0727 15:32:53.179419 30424 net.cpp:111] Creating Layer pool4
I0727 15:32:53.179421 30424 net.cpp:478] pool4 <- conv4_3_relu4_3_0_split_0
I0727 15:32:53.179425 30424 net.cpp:434] pool4 -> pool4
I0727 15:32:53.179464 30424 net.cpp:156] Setting up pool4
I0727 15:32:53.179468 30424 net.cpp:164] Top shape: 18 512 21 21 (4064256)
I0727 15:32:53.179471 30424 layer_factory.hpp:76] Creating layer conv5_1
I0727 15:32:53.179476 30424 net.cpp:111] Creating Layer conv5_1
I0727 15:32:53.179479 30424 net.cpp:478] conv5_1 <- pool4
I0727 15:32:53.179483 30424 net.cpp:434] conv5_1 -> conv5_1
I0727 15:32:53.182348 30424 net.cpp:156] Setting up conv5_1
I0727 15:32:53.182379 30424 net.cpp:164] Top shape: 18 512 21 21 (4064256)
I0727 15:32:53.182386 30424 layer_factory.hpp:76] Creating layer relu5_1
I0727 15:32:53.182394 30424 net.cpp:111] Creating Layer relu5_1
I0727 15:32:53.182399 30424 net.cpp:478] relu5_1 <- conv5_1
I0727 15:32:53.182410 30424 net.cpp:420] relu5_1 -> conv5_1 (in-place)
I0727 15:32:53.182467 30424 net.cpp:156] Setting up relu5_1
I0727 15:32:53.182472 30424 net.cpp:164] Top shape: 18 512 21 21 (4064256)
I0727 15:32:53.182474 30424 layer_factory.hpp:76] Creating layer conv5_1_relu5_1_0_split
I0727 15:32:53.182479 30424 net.cpp:111] Creating Layer conv5_1_relu5_1_0_split
I0727 15:32:53.182482 30424 net.cpp:478] conv5_1_relu5_1_0_split <- conv5_1
I0727 15:32:53.182485 30424 net.cpp:434] conv5_1_relu5_1_0_split -> conv5_1_relu5_1_0_split_0
I0727 15:32:53.182490 30424 net.cpp:434] conv5_1_relu5_1_0_split -> conv5_1_relu5_1_0_split_1
I0727 15:32:53.182497 30424 net.cpp:156] Setting up conv5_1_relu5_1_0_split
I0727 15:32:53.182499 30424 net.cpp:164] Top shape: 18 512 21 21 (4064256)
I0727 15:32:53.182502 30424 net.cpp:164] Top shape: 18 512 21 21 (4064256)
I0727 15:32:53.182505 30424 layer_factory.hpp:76] Creating layer conv5_2
I0727 15:32:53.182510 30424 net.cpp:111] Creating Layer conv5_2
I0727 15:32:53.182512 30424 net.cpp:478] conv5_2 <- conv5_1_relu5_1_0_split_0
I0727 15:32:53.182517 30424 net.cpp:434] conv5_2 -> conv5_2
I0727 15:32:53.185421 30424 net.cpp:156] Setting up conv5_2
I0727 15:32:53.185452 30424 net.cpp:164] Top shape: 18 512 21 21 (4064256)
I0727 15:32:53.185461 30424 layer_factory.hpp:76] Creating layer relu5_2
I0727 15:32:53.185467 30424 net.cpp:111] Creating Layer relu5_2
I0727 15:32:53.185472 30424 net.cpp:478] relu5_2 <- conv5_2
I0727 15:32:53.185477 30424 net.cpp:420] relu5_2 -> conv5_2 (in-place)
I0727 15:32:53.185534 30424 net.cpp:156] Setting up relu5_2
I0727 15:32:53.185537 30424 net.cpp:164] Top shape: 18 512 21 21 (4064256)
I0727 15:32:53.185540 30424 layer_factory.hpp:76] Creating layer conv5_2_relu5_2_0_split
I0727 15:32:53.185545 30424 net.cpp:111] Creating Layer conv5_2_relu5_2_0_split
I0727 15:32:53.185547 30424 net.cpp:478] conv5_2_relu5_2_0_split <- conv5_2
I0727 15:32:53.185551 30424 net.cpp:434] conv5_2_relu5_2_0_split -> conv5_2_relu5_2_0_split_0
I0727 15:32:53.185556 30424 net.cpp:434] conv5_2_relu5_2_0_split -> conv5_2_relu5_2_0_split_1
I0727 15:32:53.185561 30424 net.cpp:156] Setting up conv5_2_relu5_2_0_split
I0727 15:32:53.185565 30424 net.cpp:164] Top shape: 18 512 21 21 (4064256)
I0727 15:32:53.185569 30424 net.cpp:164] Top shape: 18 512 21 21 (4064256)
I0727 15:32:53.185571 30424 layer_factory.hpp:76] Creating layer conv5_3
I0727 15:32:53.185576 30424 net.cpp:111] Creating Layer conv5_3
I0727 15:32:53.185580 30424 net.cpp:478] conv5_3 <- conv5_2_relu5_2_0_split_0
I0727 15:32:53.185582 30424 net.cpp:434] conv5_3 -> conv5_3
I0727 15:32:53.188561 30424 net.cpp:156] Setting up conv5_3
I0727 15:32:53.188591 30424 net.cpp:164] Top shape: 18 512 21 21 (4064256)
I0727 15:32:53.188598 30424 layer_factory.hpp:76] Creating layer relu5_3
I0727 15:32:53.188606 30424 net.cpp:111] Creating Layer relu5_3
I0727 15:32:53.188611 30424 net.cpp:478] relu5_3 <- conv5_3
I0727 15:32:53.188617 30424 net.cpp:420] relu5_3 -> conv5_3 (in-place)
I0727 15:32:53.188802 30424 net.cpp:156] Setting up relu5_3
I0727 15:32:53.188810 30424 net.cpp:164] Top shape: 18 512 21 21 (4064256)
I0727 15:32:53.188813 30424 layer_factory.hpp:76] Creating layer score-dsn1_1
I0727 15:32:53.188819 30424 net.cpp:111] Creating Layer score-dsn1_1
I0727 15:32:53.188822 30424 net.cpp:478] score-dsn1_1 <- conv1_1_relu1_1_0_split_1
I0727 15:32:53.188827 30424 net.cpp:434] score-dsn1_1 -> score-dsn1_1-up
I0727 15:32:53.189147 30424 net.cpp:156] Setting up score-dsn1_1
I0727 15:32:53.189155 30424 net.cpp:164] Top shape: 18 1 324 324 (1889568)
I0727 15:32:53.189160 30424 layer_factory.hpp:76] Creating layer crop
I0727 15:32:53.189165 30424 net.cpp:111] Creating Layer crop
I0727 15:32:53.189168 30424 net.cpp:478] crop <- score-dsn1_1-up
I0727 15:32:53.189172 30424 net.cpp:478] crop <- input_sat_input_sat_0_split_1
I0727 15:32:53.189177 30424 net.cpp:434] crop -> upscore-dsn1_1
I0727 15:32:53.189203 30424 net.cpp:156] Setting up crop
I0727 15:32:53.189208 30424 net.cpp:164] Top shape: 18 1 256 256 (1179648)
I0727 15:32:53.189210 30424 layer_factory.hpp:76] Creating layer score-dsn1_2
I0727 15:32:53.189219 30424 net.cpp:111] Creating Layer score-dsn1_2
I0727 15:32:53.189223 30424 net.cpp:478] score-dsn1_2 <- conv1_2_relu1_2_0_split_1
I0727 15:32:53.189226 30424 net.cpp:434] score-dsn1_2 -> score-dsn1_2-up
I0727 15:32:53.189328 30424 net.cpp:156] Setting up score-dsn1_2
I0727 15:32:53.189337 30424 net.cpp:164] Top shape: 18 1 324 324 (1889568)
I0727 15:32:53.189342 30424 layer_factory.hpp:76] Creating layer crop
I0727 15:32:53.189363 30424 net.cpp:111] Creating Layer crop
I0727 15:32:53.189366 30424 net.cpp:478] crop <- score-dsn1_2-up
I0727 15:32:53.189369 30424 net.cpp:478] crop <- input_sat_input_sat_0_split_2
I0727 15:32:53.189373 30424 net.cpp:434] crop -> upscore-dsn1_2
I0727 15:32:53.189404 30424 net.cpp:156] Setting up crop
I0727 15:32:53.189409 30424 net.cpp:164] Top shape: 18 1 256 256 (1179648)
I0727 15:32:53.189411 30424 layer_factory.hpp:76] Creating layer score-dsn2_1
I0727 15:32:53.189415 30424 net.cpp:111] Creating Layer score-dsn2_1
I0727 15:32:53.189419 30424 net.cpp:478] score-dsn2_1 <- conv2_1_relu2_1_0_split_1
I0727 15:32:53.189422 30424 net.cpp:434] score-dsn2_1 -> score-dsn2_1
I0727 15:32:53.189466 30424 net.cpp:156] Setting up score-dsn2_1
I0727 15:32:53.189471 30424 net.cpp:164] Top shape: 18 1 162 162 (472392)
I0727 15:32:53.189476 30424 layer_factory.hpp:76] Creating layer upsample_2-2_1
I0727 15:32:53.189481 30424 net.cpp:111] Creating Layer upsample_2-2_1
I0727 15:32:53.189483 30424 net.cpp:478] upsample_2-2_1 <- score-dsn2_1
I0727 15:32:53.189487 30424 net.cpp:434] upsample_2-2_1 -> score-dsn2_1-up
I0727 15:32:53.189787 30424 net.cpp:156] Setting up upsample_2-2_1
I0727 15:32:53.189796 30424 net.cpp:164] Top shape: 18 1 326 326 (1912968)
I0727 15:32:53.189805 30424 layer_factory.hpp:76] Creating layer crop
I0727 15:32:53.189810 30424 net.cpp:111] Creating Layer crop
I0727 15:32:53.189813 30424 net.cpp:478] crop <- score-dsn2_1-up
I0727 15:32:53.189816 30424 net.cpp:478] crop <- input_sat_input_sat_0_split_3
I0727 15:32:53.189821 30424 net.cpp:434] crop -> upscore-dsn2_1
I0727 15:32:53.189846 30424 net.cpp:156] Setting up crop
I0727 15:32:53.189851 30424 net.cpp:164] Top shape: 18 1 256 256 (1179648)
I0727 15:32:53.189853 30424 layer_factory.hpp:76] Creating layer score-dsn2_2
I0727 15:32:53.189858 30424 net.cpp:111] Creating Layer score-dsn2_2
I0727 15:32:53.189860 30424 net.cpp:478] score-dsn2_2 <- conv2_2_relu2_2_0_split_1
I0727 15:32:53.189865 30424 net.cpp:434] score-dsn2_2 -> score-dsn2_2
I0727 15:32:53.189919 30424 net.cpp:156] Setting up score-dsn2_2
I0727 15:32:53.189925 30424 net.cpp:164] Top shape: 18 1 162 162 (472392)
I0727 15:32:53.189930 30424 layer_factory.hpp:76] Creating layer upsample_2-2_2
I0727 15:32:53.189934 30424 net.cpp:111] Creating Layer upsample_2-2_2
I0727 15:32:53.189937 30424 net.cpp:478] upsample_2-2_2 <- score-dsn2_2
I0727 15:32:53.189942 30424 net.cpp:434] upsample_2-2_2 -> score-dsn2_2-up
I0727 15:32:53.190011 30424 net.cpp:156] Setting up upsample_2-2_2
I0727 15:32:53.190016 30424 net.cpp:164] Top shape: 18 1 326 326 (1912968)
I0727 15:32:53.190021 30424 layer_factory.hpp:76] Creating layer crop
I0727 15:32:53.190026 30424 net.cpp:111] Creating Layer crop
I0727 15:32:53.190028 30424 net.cpp:478] crop <- score-dsn2_2-up
I0727 15:32:53.190032 30424 net.cpp:478] crop <- input_sat_input_sat_0_split_4
I0727 15:32:53.190035 30424 net.cpp:434] crop -> upscore-dsn2_2
I0727 15:32:53.190060 30424 net.cpp:156] Setting up crop
I0727 15:32:53.190064 30424 net.cpp:164] Top shape: 18 1 256 256 (1179648)
I0727 15:32:53.190068 30424 layer_factory.hpp:76] Creating layer score-dsn3_1
I0727 15:32:53.190071 30424 net.cpp:111] Creating Layer score-dsn3_1
I0727 15:32:53.190074 30424 net.cpp:478] score-dsn3_1 <- conv3_1_relu3_1_0_split_1
I0727 15:32:53.190078 30424 net.cpp:434] score-dsn3_1 -> score-dsn3_1
I0727 15:32:53.190111 30424 net.cpp:156] Setting up score-dsn3_1
I0727 15:32:53.190116 30424 net.cpp:164] Top shape: 18 1 81 81 (118098)
I0727 15:32:53.190120 30424 layer_factory.hpp:76] Creating layer upsample_4-3_1
I0727 15:32:53.190127 30424 net.cpp:111] Creating Layer upsample_4-3_1
I0727 15:32:53.190130 30424 net.cpp:478] upsample_4-3_1 <- score-dsn3_1
I0727 15:32:53.190135 30424 net.cpp:434] upsample_4-3_1 -> score-dsn3_1-up
I0727 15:32:53.190431 30424 net.cpp:156] Setting up upsample_4-3_1
I0727 15:32:53.190439 30424 net.cpp:164] Top shape: 18 1 328 328 (1936512)
I0727 15:32:53.190444 30424 layer_factory.hpp:76] Creating layer crop
I0727 15:32:53.190448 30424 net.cpp:111] Creating Layer crop
I0727 15:32:53.190453 30424 net.cpp:478] crop <- score-dsn3_1-up
I0727 15:32:53.190455 30424 net.cpp:478] crop <- input_sat_input_sat_0_split_5
I0727 15:32:53.190459 30424 net.cpp:434] crop -> upscore-dsn3_1
I0727 15:32:53.190490 30424 net.cpp:156] Setting up crop
I0727 15:32:53.190493 30424 net.cpp:164] Top shape: 18 1 256 256 (1179648)
I0727 15:32:53.190496 30424 layer_factory.hpp:76] Creating layer score-dsn3_2
I0727 15:32:53.190500 30424 net.cpp:111] Creating Layer score-dsn3_2
I0727 15:32:53.190503 30424 net.cpp:478] score-dsn3_2 <- conv3_2_relu3_2_0_split_1
I0727 15:32:53.190507 30424 net.cpp:434] score-dsn3_2 -> score-dsn3_2
I0727 15:32:53.190541 30424 net.cpp:156] Setting up score-dsn3_2
I0727 15:32:53.190546 30424 net.cpp:164] Top shape: 18 1 81 81 (118098)
I0727 15:32:53.190560 30424 layer_factory.hpp:76] Creating layer upsample_4-3_2
I0727 15:32:53.190565 30424 net.cpp:111] Creating Layer upsample_4-3_2
I0727 15:32:53.190567 30424 net.cpp:478] upsample_4-3_2 <- score-dsn3_2
I0727 15:32:53.190572 30424 net.cpp:434] upsample_4-3_2 -> score-dsn3_2-up
I0727 15:32:53.190670 30424 net.cpp:156] Setting up upsample_4-3_2
I0727 15:32:53.190675 30424 net.cpp:164] Top shape: 18 1 328 328 (1936512)
I0727 15:32:53.190680 30424 layer_factory.hpp:76] Creating layer crop
I0727 15:32:53.190683 30424 net.cpp:111] Creating Layer crop
I0727 15:32:53.190686 30424 net.cpp:478] crop <- score-dsn3_2-up
I0727 15:32:53.190690 30424 net.cpp:478] crop <- input_sat_input_sat_0_split_6
I0727 15:32:53.190693 30424 net.cpp:434] crop -> upscore-dsn3_2
I0727 15:32:53.190723 30424 net.cpp:156] Setting up crop
I0727 15:32:53.190737 30424 net.cpp:164] Top shape: 18 1 256 256 (1179648)
I0727 15:32:53.190740 30424 layer_factory.hpp:76] Creating layer score-dsn3_3
I0727 15:32:53.190744 30424 net.cpp:111] Creating Layer score-dsn3_3
I0727 15:32:53.190747 30424 net.cpp:478] score-dsn3_3 <- conv3_3_relu3_3_0_split_1
I0727 15:32:53.190752 30424 net.cpp:434] score-dsn3_3 -> score-dsn3_3
I0727 15:32:53.190793 30424 net.cpp:156] Setting up score-dsn3_3
I0727 15:32:53.190798 30424 net.cpp:164] Top shape: 18 1 81 81 (118098)
I0727 15:32:53.190811 30424 layer_factory.hpp:76] Creating layer upsample_4-3_3
I0727 15:32:53.190816 30424 net.cpp:111] Creating Layer upsample_4-3_3
I0727 15:32:53.190819 30424 net.cpp:478] upsample_4-3_3 <- score-dsn3_3
I0727 15:32:53.190822 30424 net.cpp:434] upsample_4-3_3 -> score-dsn3_3-up
I0727 15:32:53.191154 30424 net.cpp:156] Setting up upsample_4-3_3
I0727 15:32:53.191162 30424 net.cpp:164] Top shape: 18 1 328 328 (1936512)
I0727 15:32:53.191169 30424 layer_factory.hpp:76] Creating layer crop
I0727 15:32:53.191172 30424 net.cpp:111] Creating Layer crop
I0727 15:32:53.191175 30424 net.cpp:478] crop <- score-dsn3_3-up
I0727 15:32:53.191179 30424 net.cpp:478] crop <- input_sat_input_sat_0_split_7
I0727 15:32:53.191184 30424 net.cpp:434] crop -> upscore-dsn3_3
I0727 15:32:53.191216 30424 net.cpp:156] Setting up crop
I0727 15:32:53.191220 30424 net.cpp:164] Top shape: 18 1 256 256 (1179648)
I0727 15:32:53.191223 30424 layer_factory.hpp:76] Creating layer score-dsn4_1
I0727 15:32:53.191231 30424 net.cpp:111] Creating Layer score-dsn4_1
I0727 15:32:53.191234 30424 net.cpp:478] score-dsn4_1 <- conv4_1_relu4_1_0_split_1
I0727 15:32:53.191239 30424 net.cpp:434] score-dsn4_1 -> score-dsn4_1
I0727 15:32:53.191278 30424 net.cpp:156] Setting up score-dsn4_1
I0727 15:32:53.191282 30424 net.cpp:164] Top shape: 18 1 41 41 (30258)
I0727 15:32:53.191287 30424 layer_factory.hpp:76] Creating layer upsample_8-4_1
I0727 15:32:53.191292 30424 net.cpp:111] Creating Layer upsample_8-4_1
I0727 15:32:53.191298 30424 net.cpp:478] upsample_8-4_1 <- score-dsn4_1
I0727 15:32:53.191303 30424 net.cpp:434] upsample_8-4_1 -> score-dsn4_1-up
I0727 15:32:53.191375 30424 net.cpp:156] Setting up upsample_8-4_1
I0727 15:32:53.191380 30424 net.cpp:164] Top shape: 18 1 336 336 (2032128)
I0727 15:32:53.191385 30424 layer_factory.hpp:76] Creating layer crop
I0727 15:32:53.191390 30424 net.cpp:111] Creating Layer crop
I0727 15:32:53.191392 30424 net.cpp:478] crop <- score-dsn4_1-up
I0727 15:32:53.191395 30424 net.cpp:478] crop <- input_sat_input_sat_0_split_8
I0727 15:32:53.191400 30424 net.cpp:434] crop -> upscore-dsn4_1
I0727 15:32:53.191443 30424 net.cpp:156] Setting up crop
I0727 15:32:53.191447 30424 net.cpp:164] Top shape: 18 1 256 256 (1179648)
I0727 15:32:53.191449 30424 layer_factory.hpp:76] Creating layer score-dsn4_2
I0727 15:32:53.191453 30424 net.cpp:111] Creating Layer score-dsn4_2
I0727 15:32:53.191457 30424 net.cpp:478] score-dsn4_2 <- conv4_2_relu4_2_0_split_1
I0727 15:32:53.191462 30424 net.cpp:434] score-dsn4_2 -> score-dsn4_2
I0727 15:32:53.191491 30424 net.cpp:156] Setting up score-dsn4_2
I0727 15:32:53.191496 30424 net.cpp:164] Top shape: 18 1 41 41 (30258)
I0727 15:32:53.191500 30424 layer_factory.hpp:76] Creating layer upsample_8-4_2
I0727 15:32:53.191504 30424 net.cpp:111] Creating Layer upsample_8-4_2
I0727 15:32:53.191507 30424 net.cpp:478] upsample_8-4_2 <- score-dsn4_2
I0727 15:32:53.191511 30424 net.cpp:434] upsample_8-4_2 -> score-dsn4_2-up
I0727 15:32:53.191812 30424 net.cpp:156] Setting up upsample_8-4_2
I0727 15:32:53.191820 30424 net.cpp:164] Top shape: 18 1 336 336 (2032128)
I0727 15:32:53.191825 30424 layer_factory.hpp:76] Creating layer crop
I0727 15:32:53.191830 30424 net.cpp:111] Creating Layer crop
I0727 15:32:53.191833 30424 net.cpp:478] crop <- score-dsn4_2-up
I0727 15:32:53.191838 30424 net.cpp:478] crop <- input_sat_input_sat_0_split_9
I0727 15:32:53.191840 30424 net.cpp:434] crop -> upscore-dsn4_2
I0727 15:32:53.191879 30424 net.cpp:156] Setting up crop
I0727 15:32:53.191882 30424 net.cpp:164] Top shape: 18 1 256 256 (1179648)
I0727 15:32:53.191885 30424 layer_factory.hpp:76] Creating layer score-dsn4_3
I0727 15:32:53.191890 30424 net.cpp:111] Creating Layer score-dsn4_3
I0727 15:32:53.191892 30424 net.cpp:478] score-dsn4_3 <- conv4_3_relu4_3_0_split_1
I0727 15:32:53.191896 30424 net.cpp:434] score-dsn4_3 -> score-dsn4_3
I0727 15:32:53.191929 30424 net.cpp:156] Setting up score-dsn4_3
I0727 15:32:53.191933 30424 net.cpp:164] Top shape: 18 1 41 41 (30258)
I0727 15:32:53.191937 30424 layer_factory.hpp:76] Creating layer upsample_8-4_3
I0727 15:32:53.191942 30424 net.cpp:111] Creating Layer upsample_8-4_3
I0727 15:32:53.191946 30424 net.cpp:478] upsample_8-4_3 <- score-dsn4_3
I0727 15:32:53.191949 30424 net.cpp:434] upsample_8-4_3 -> score-dsn4_3-up
I0727 15:32:53.192036 30424 net.cpp:156] Setting up upsample_8-4_3
I0727 15:32:53.192041 30424 net.cpp:164] Top shape: 18 1 336 336 (2032128)
I0727 15:32:53.192045 30424 layer_factory.hpp:76] Creating layer crop
I0727 15:32:53.192049 30424 net.cpp:111] Creating Layer crop
I0727 15:32:53.192052 30424 net.cpp:478] crop <- score-dsn4_3-up
I0727 15:32:53.192055 30424 net.cpp:478] crop <- input_sat_input_sat_0_split_10
I0727 15:32:53.192059 30424 net.cpp:434] crop -> upscore-dsn4_3
I0727 15:32:53.192096 30424 net.cpp:156] Setting up crop
I0727 15:32:53.192100 30424 net.cpp:164] Top shape: 18 1 256 256 (1179648)
I0727 15:32:53.192102 30424 layer_factory.hpp:76] Creating layer score-dsn5_1
I0727 15:32:53.192106 30424 net.cpp:111] Creating Layer score-dsn5_1
I0727 15:32:53.192111 30424 net.cpp:478] score-dsn5_1 <- conv5_1_relu5_1_0_split_1
I0727 15:32:53.192114 30424 net.cpp:434] score-dsn5_1 -> score-dsn5_1
I0727 15:32:53.192140 30424 net.cpp:156] Setting up score-dsn5_1
I0727 15:32:53.192144 30424 net.cpp:164] Top shape: 18 1 21 21 (7938)
I0727 15:32:53.192148 30424 layer_factory.hpp:76] Creating layer upsample_16-5_1
I0727 15:32:53.192154 30424 net.cpp:111] Creating Layer upsample_16-5_1
I0727 15:32:53.192159 30424 net.cpp:478] upsample_16-5_1 <- score-dsn5_1
I0727 15:32:53.192168 30424 net.cpp:434] upsample_16-5_1 -> score-dsn5_1-up
I0727 15:32:53.192481 30424 net.cpp:156] Setting up upsample_16-5_1
I0727 15:32:53.192490 30424 net.cpp:164] Top shape: 18 1 352 352 (2230272)
I0727 15:32:53.192502 30424 layer_factory.hpp:76] Creating layer crop
I0727 15:32:53.192507 30424 net.cpp:111] Creating Layer crop
I0727 15:32:53.192509 30424 net.cpp:478] crop <- score-dsn5_1-up
I0727 15:32:53.192512 30424 net.cpp:478] crop <- input_sat_input_sat_0_split_11
I0727 15:32:53.192517 30424 net.cpp:434] crop -> upscore-dsn5_1
I0727 15:32:53.192558 30424 net.cpp:156] Setting up crop
I0727 15:32:53.192561 30424 net.cpp:164] Top shape: 18 1 256 256 (1179648)
I0727 15:32:53.192564 30424 layer_factory.hpp:76] Creating layer score-dsn5_2
I0727 15:32:53.192569 30424 net.cpp:111] Creating Layer score-dsn5_2
I0727 15:32:53.192572 30424 net.cpp:478] score-dsn5_2 <- conv5_2_relu5_2_0_split_1
I0727 15:32:53.192576 30424 net.cpp:434] score-dsn5_2 -> score-dsn5_2
I0727 15:32:53.192605 30424 net.cpp:156] Setting up score-dsn5_2
I0727 15:32:53.192610 30424 net.cpp:164] Top shape: 18 1 21 21 (7938)
I0727 15:32:53.192615 30424 layer_factory.hpp:76] Creating layer upsample_16-5_2
I0727 15:32:53.192618 30424 net.cpp:111] Creating Layer upsample_16-5_2
I0727 15:32:53.192621 30424 net.cpp:478] upsample_16-5_2 <- score-dsn5_2
I0727 15:32:53.192625 30424 net.cpp:434] upsample_16-5_2 -> score-dsn5_2-up
I0727 15:32:53.192699 30424 net.cpp:156] Setting up upsample_16-5_2
I0727 15:32:53.192704 30424 net.cpp:164] Top shape: 18 1 352 352 (2230272)
I0727 15:32:53.192709 30424 layer_factory.hpp:76] Creating layer crop
I0727 15:32:53.192713 30424 net.cpp:111] Creating Layer crop
I0727 15:32:53.192715 30424 net.cpp:478] crop <- score-dsn5_2-up
I0727 15:32:53.192719 30424 net.cpp:478] crop <- input_sat_input_sat_0_split_12
I0727 15:32:53.192723 30424 net.cpp:434] crop -> upscore-dsn5_2
I0727 15:32:53.192764 30424 net.cpp:156] Setting up crop
I0727 15:32:53.192767 30424 net.cpp:164] Top shape: 18 1 256 256 (1179648)
I0727 15:32:53.192770 30424 layer_factory.hpp:76] Creating layer score-dsn5_3
I0727 15:32:53.192775 30424 net.cpp:111] Creating Layer score-dsn5_3
I0727 15:32:53.192777 30424 net.cpp:478] score-dsn5_3 <- conv5_3
I0727 15:32:53.192781 30424 net.cpp:434] score-dsn5_3 -> score-dsn5_3
I0727 15:32:53.192807 30424 net.cpp:156] Setting up score-dsn5_3
I0727 15:32:53.192811 30424 net.cpp:164] Top shape: 18 1 21 21 (7938)
I0727 15:32:53.192816 30424 layer_factory.hpp:76] Creating layer upsample_16-5_3
I0727 15:32:53.192819 30424 net.cpp:111] Creating Layer upsample_16-5_3
I0727 15:32:53.192822 30424 net.cpp:478] upsample_16-5_3 <- score-dsn5_3
I0727 15:32:53.192826 30424 net.cpp:434] upsample_16-5_3 -> score-dsn5_3-up
I0727 15:32:53.193130 30424 net.cpp:156] Setting up upsample_16-5_3
I0727 15:32:53.193137 30424 net.cpp:164] Top shape: 18 1 352 352 (2230272)
I0727 15:32:53.193142 30424 layer_factory.hpp:76] Creating layer crop
I0727 15:32:53.193147 30424 net.cpp:111] Creating Layer crop
I0727 15:32:53.193150 30424 net.cpp:478] crop <- score-dsn5_3-up
I0727 15:32:53.193153 30424 net.cpp:478] crop <- input_sat_input_sat_0_split_13
I0727 15:32:53.193157 30424 net.cpp:434] crop -> upscore-dsn5_3
I0727 15:32:53.193200 30424 net.cpp:156] Setting up crop
I0727 15:32:53.193204 30424 net.cpp:164] Top shape: 18 1 256 256 (1179648)
I0727 15:32:53.193207 30424 layer_factory.hpp:76] Creating layer concat-conv-pooling
I0727 15:32:53.193212 30424 net.cpp:111] Creating Layer concat-conv-pooling
I0727 15:32:53.193215 30424 net.cpp:478] concat-conv-pooling <- upscore-dsn1_1
I0727 15:32:53.193218 30424 net.cpp:478] concat-conv-pooling <- upscore-dsn1_2
I0727 15:32:53.193222 30424 net.cpp:478] concat-conv-pooling <- upscore-dsn2_1
I0727 15:32:53.193225 30424 net.cpp:478] concat-conv-pooling <- upscore-dsn2_2
I0727 15:32:53.193228 30424 net.cpp:478] concat-conv-pooling <- upscore-dsn3_1
I0727 15:32:53.193230 30424 net.cpp:478] concat-conv-pooling <- upscore-dsn3_2
I0727 15:32:53.193233 30424 net.cpp:478] concat-conv-pooling <- upscore-dsn3_3
I0727 15:32:53.193239 30424 net.cpp:478] concat-conv-pooling <- upscore-dsn4_1
I0727 15:32:53.193243 30424 net.cpp:478] concat-conv-pooling <- upscore-dsn4_2
I0727 15:32:53.193245 30424 net.cpp:478] concat-conv-pooling <- upscore-dsn4_3
I0727 15:32:53.193248 30424 net.cpp:478] concat-conv-pooling <- upscore-dsn5_1
I0727 15:32:53.193250 30424 net.cpp:478] concat-conv-pooling <- upscore-dsn5_2
I0727 15:32:53.193253 30424 net.cpp:478] concat-conv-pooling <- upscore-dsn5_3
I0727 15:32:53.193256 30424 net.cpp:434] concat-conv-pooling -> concat-conv-pooling
I0727 15:32:53.193264 30424 net.cpp:156] Setting up concat-conv-pooling
I0727 15:32:53.193266 30424 net.cpp:164] Top shape: 18 13 256 256 (15335424)
I0727 15:32:53.193269 30424 layer_factory.hpp:76] Creating layer new-score-weighting-conv-pooling
I0727 15:32:53.193274 30424 net.cpp:111] Creating Layer new-score-weighting-conv-pooling
I0727 15:32:53.193276 30424 net.cpp:478] new-score-weighting-conv-pooling <- concat-conv-pooling
I0727 15:32:53.193280 30424 net.cpp:434] new-score-weighting-conv-pooling -> upscore-concat-conv-pooling
I0727 15:32:53.193354 30424 net.cpp:156] Setting up new-score-weighting-conv-pooling
I0727 15:32:53.193359 30424 net.cpp:164] Top shape: 18 1 256 256 (1179648)
I0727 15:32:53.193363 30424 layer_factory.hpp:76] Creating layer predict_loss
I0727 15:32:53.193369 30424 net.cpp:111] Creating Layer predict_loss
I0727 15:32:53.193372 30424 net.cpp:478] predict_loss <- upscore-concat-conv-pooling
I0727 15:32:53.193375 30424 net.cpp:478] predict_loss <- input_map
I0727 15:32:53.193378 30424 net.cpp:434] predict_loss -> predict_loss
I0727 15:32:53.194634 30424 net.cpp:156] Setting up predict_loss
…
I0727 15:32:53.196476 30424 net.cpp:50] Initializing net from parameters: 
name: "BuildingDetection"
state {
  phase: TEST
}
layer {
  name: "input_sat"
  type: "Data"
  top: "input_sat"
  include {
    phase: TEST
  }
  transform_param {
    scale: 0.00390625
  }
  data_param {
    source: "../../../data/mass_buildings/lmdb/valid_sat_256"
    batch_size: 3
    backend: LMDB
  }
}
layer {
  name: "input_map"
  type: "Data"
  top: "input_map"
  include {
    phase: TEST
  }
  data_param {
    source: "../../../data/mass_buildings/lmdb/valid_map_256"
    batch_size: 3
    backend: LMDB
  }
}
layer {
  name: "conv1_1"
  type: "Convolution"
  bottom: "input_sat"
  top: "conv1_1"
  param {
    lr_mult: 1
    decay_mult: 1
  }
  param {
    lr_mult: 2
    decay_mult: 0
  }
  convolution_param {
    num_output: 64
    pad: 35
    kernel_size: 3
    engine: CAFFE
  }
}
layer {
  name: "relu1_1"
  type: "ReLU"
  bottom: "conv1_1"
  top: "conv1_1"
}
layer {
  name: "conv1_2"
  type: "Convolution"
  bottom: "conv1_1"
  top: "conv1_2"
  param {
    lr_mult: 1
    decay_mult: 1
  }
  param {
    lr_mult: 2
    decay_mult: 0
  }
  convolution_param {
    num_output: 64
    pad: 1
    kernel_size: 3
    engine: CAFFE
  }
}
layer {
  name: "relu1_2"
  type: "ReLU"
  bottom: "conv1_2"
  top: "conv1_2"
}
layer {
  name: "pool1"
  type: "Pooling"
  bottom: "conv1_2"
  top: "pool1"
  pooling_param {
    pool: MAX
    kernel_size: 2
    stride: 2
  }
}
layer {
  name: "conv2_1"
  type: "Convolution"
  bottom: "pool1"
  top: "conv2_1"
  param {
    lr_mult: 1
    decay_mult: 1
  }
  param {
    lr_mult: 2
    decay_mult: 0
  }
  convolution_param {
    num_output: 128
    pad: 1
    kernel_size: 3
    engine: CAFFE
  }
}
layer {
  name: "relu2_1"
  type: "ReLU"
  bottom: "conv2_1"
  top: "conv2_1"
}
layer {
  name: "conv2_2"
  type: "Convolution"
  bottom: "conv2_1"
  top: "conv2_2"
  param {
    lr_mult: 1
    decay_mult: 1
  }
  param {
    lr_mult: 2
    decay_mult: 0
  }
  convolution_param {
    num_output: 128
    pad: 1
    kernel_size: 3
    engine: CAFFE
  }
}
layer {
  name: "relu2_2"
  type: "ReLU"
  bottom: "conv2_2"
  top: "conv2_2"
}
layer {
  name: "pool2"
  type: "Pooling"
  bottom: "conv2_2"
  top: "pool2"
  pooling_param {
    pool: MAX
    kernel_size: 2
    stride: 2
  }
}
layer {
  name: "conv3_1"
  type: "Convolution"
  bottom: "pool2"
  top: "conv3_1"
  param {
    lr_mult: 1
    decay_mult: 1
  }
  param {
    lr_mult: 2
    decay_mult: 0
  }
  convolution_param {
    num_output: 256
    pad: 1
    kernel_size: 3
    engine: CAFFE
  }
}
layer {
  name: "relu3_1"
  type: "ReLU"
  bottom: "conv3_1"
  top: "conv3_1"
}
layer {
  name: "conv3_2"
  type: "Convolution"
  bottom: "conv3_1"
  top: "conv3_2"
  param {
    lr_mult: 1
    decay_mult: 1
  }
  param {
    lr_mult: 2
    decay_mult: 0
  }
  convolution_param {
    num_output: 256
    pad: 1
    kernel_size: 3
    engine: CAFFE
  }
}
layer {
  name: "relu3_2"
  type: "ReLU"
  bottom: "conv3_2"
  top: "conv3_2"
}
layer {
  name: "conv3_3"
  type: "Convolution"
  bottom: "conv3_2"
  top: "conv3_3"
  param {
    lr_mult: 1
    decay_mult: 1
  }
  param {
    lr_mult: 2
    decay_mult: 0
  }
  convolution_param {
    num_output: 256
    pad: 1
    kernel_size: 3
    engine: CAFFE
  }
}
layer {
  name: "relu3_3"
  type: "ReLU"
  bottom: "conv3_3"
  top: "conv3_3"
}
layer {
  name: "pool3"
  type: "Pooling"
  bottom: "conv3_3"
  top: "pool3"
  pooling_param {
    pool: MAX
    kernel_size: 2
    stride: 2
  }
}
layer {
  name: "conv4_1"
  type: "Convolution"
  bottom: "pool3"
  top: "conv4_1"
  param {
    lr_mult: 1
    decay_mult: 1
  }
  param {
    lr_mult: 2
    decay_mult: 0
  }
  convolution_param {
    num_output: 512
    pad: 1
    kernel_size: 3
    engine: CAFFE
  }
}
layer {
  name: "relu4_1"
  type: "ReLU"
  bottom: "conv4_1"
  top: "conv4_1"
}
layer {
  name: "conv4_2"
  type: "Convolution"
  bottom: "conv4_1"
  top: "conv4_2"
  param {
    lr_mult: 1
    decay_mult: 1
  }
  param {
    lr_mult: 2
    decay_mult: 0
  }
  convolution_param {
    num_output: 512
    pad: 1
    kernel_size: 3
    engine: CAFFE
  }
}
layer {
  name: "relu4_2"
  type: "ReLU"
  bottom: "conv4_2"
  top: "conv4_2"
}
layer {
  name: "conv4_3"
  type: "Convolution"
  bottom: "conv4_2"
  top: "conv4_3"
  param {
    lr_mult: 1
    decay_mult: 1
  }
  param {
    lr_mult: 2
    decay_mult: 0
  }
  convolution_param {
    num_output: 512
    pad: 1
    kernel_size: 3
    engine: CAFFE
  }
}
layer {
  name: "relu4_3"
  type: "ReLU"
  bottom: "conv4_3"
  top: "conv4_3"
}
layer {
  name: "pool4"
  type: "Pooling"
  bottom: "conv4_3"
  top: "pool4"
  pooling_param {
    pool: MAX
    kernel_size: 2
    stride: 2
  }
}
layer {
  name: "conv5_1"
  type: "Convolution"
  bottom: "pool4"
  top: "conv5_1"
  param {
    lr_mult: 1
    decay_mult: 1
  }
  param {
    lr_mult: 2
    decay_mult: 0
  }
  convolution_param {
    num_output: 512
    pad: 1
    kernel_size: 3
    engine: CAFFE
  }
}
layer {
  name: "relu5_1"
  type: "ReLU"
  bottom: "conv5_1"
  top: "conv5_1"
}
layer {
  name: "conv5_2"
  type: "Convolution"
  bottom: "conv5_1"
  top: "conv5_2"
  param {
    lr_mult: 1
    decay_mult: 1
  }
  param {
    lr_mult: 2
    decay_mult: 0
  }
  convolution_param {
    num_output: 512
    pad: 1
    kernel_size: 3
    engine: CAFFE
  }
}
layer {
  name: "relu5_2"
  type: "ReLU"
  bottom: "conv5_2"
  top: "conv5_2"
}
layer {
  name: "conv5_3"
  type: "Convolution"
  bottom: "conv5_2"
  top: "conv5_3"
  param {
    lr_mult: 1
    decay_mult: 1
  }
  param {
    lr_mult: 2
    decay_mult: 0
  }
  convolution_param {
    num_output: 512
    pad: 1
    kernel_size: 3
    engine: CAFFE
  }
}
layer {
  name: "relu5_3"
  type: "ReLU"
  bottom: "conv5_3"
  top: "conv5_3"
}
layer {
  name: "score-dsn1_1"
  type: "Convolution"
  bottom: "conv1_1"
  top: "score-dsn1_1-up"
  param {
    lr_mult: 0.1
    decay_mult: 1
  }
  param {
    lr_mult: 0.2
    decay_mult: 0
  }
  convolution_param {
    num_output: 1
    kernel_size: 1
    engine: CAFFE
  }
}
layer {
  name: "crop"
  type: "Crop"
  bottom: "score-dsn1_1-up"
  bottom: "input_sat"
  top: "upscore-dsn1_1"
}
layer {
  name: "score-dsn1_2"
  type: "Convolution"
  bottom: "conv1_2"
  top: "score-dsn1_2-up"
  param {
    lr_mult: 0.1
    decay_mult: 1
  }
  param {
    lr_mult: 0.2
    decay_mult: 0
  }
  convolution_param {
    num_output: 1
    kernel_size: 1
    engine: CAFFE
  }
}
layer {
  name: "crop"
  type: "Crop"
  bottom: "score-dsn1_2-up"
  bottom: "input_sat"
  top: "upscore-dsn1_2"
}
layer {
  name: "score-dsn2_1"
  type: "Convolution"
  bottom: "conv2_1"
  top: "score-dsn2_1"
  param {
    lr_mult: 0.1
    decay_mult: 1
  }
  param {
    lr_mult: 0.2
    decay_mult: 0
  }
  convolution_param {
    num_output: 1
    kernel_size: 1
    engine: CAFFE
  }
}
layer {
  name: "upsample_2-2_1"
  type: "Deconvolution"
  bottom: "score-dsn2_1"
  top: "score-dsn2_1-up"
  param {
    lr_mult: 0
    decay_mult: 1
  }
  param {
    lr_mult: 0
    decay_mult: 0
  }
  convolution_param {
    num_output: 1
    kernel_size: 4
    stride: 2
  }
}
layer {
  name: "crop"
  type: "Crop"
  bottom: "score-dsn2_1-up"
  bottom: "input_sat"
  top: "upscore-dsn2_1"
}
layer {
  name: "score-dsn2_2"
  type: "Convolution"
  bottom: "conv2_2"
  top: "score-dsn2_2"
  param {
    lr_mult: 0.1
    decay_mult: 1
  }
  param {
    lr_mult: 0.2
    decay_mult: 0
  }
  convolution_param {
    num_output: 1
    kernel_size: 1
    engine: CAFFE
  }
}
layer {
  name: "upsample_2-2_2"
  type: "Deconvolution"
  bottom: "score-dsn2_2"
  top: "score-dsn2_2-up"
  param {
    lr_mult: 0
    decay_mult: 1
  }
  param {
    lr_mult: 0
    decay_mult: 0
  }
  convolution_param {
    num_output: 1
    kernel_size: 4
    stride: 2
  }
}
layer {
  name: "crop"
  type: "Crop"
  bottom: "score-dsn2_2-up"
  bottom: "input_sat"
  top: "upscore-dsn2_2"
}
layer {
  name: "score-dsn3_1"
  type: "Convolution"
  bottom: "conv3_1"
  top: "score-dsn3_1"
  param {
    lr_mult: 0.1
    decay_mult: 1
  }
  param {
    lr_mult: 0.2
    decay_mult: 0
  }
  convolution_param {
    num_output: 1
    kernel_size: 1
    engine: CAFFE
  }
}
layer {
  name: "upsample_4-3_1"
  type: "Deconvolution"
  bottom: "score-dsn3_1"
  top: "score-dsn3_1-up"
  param {
    lr_mult: 0
    decay_mult: 1
  }
  param {
    lr_mult: 0
    decay_mult: 0
  }
  convolution_param {
    num_output: 1
    kernel_size: 8
    stride: 4
  }
}
layer {
  name: "crop"
  type: "Crop"
  bottom: "score-dsn3_1-up"
  bottom: "input_sat"
  top: "upscore-dsn3_1"
}
layer {
  name: "score-dsn3_2"
  type: "Convolution"
  bottom: "conv3_2"
  top: "score-dsn3_2"
  param {
    lr_mult: 0.1
    decay_mult: 1
  }
  param {
    lr_mult: 0.2
    decay_mult: 0
  }
  convolution_param {
    num_output: 1
    kernel_size: 1
    engine: CAFFE
  }
}
layer {
  name: "upsample_4-3_2"
  type: "Deconvolution"
  bottom: "score-dsn3_2"
  top: "score-dsn3_2-up"
  param {
    lr_mult: 0
    decay_mult: 1
  }
  param {
    lr_mult: 0
    decay_mult: 0
  }
  convolution_param {
    num_output: 1
    kernel_size: 8
    stride: 4
  }
}
layer {
  name: "crop"
  type: "Crop"
  bottom: "score-dsn3_2-up"
  bottom: "input_sat"
  top: "upscore-dsn3_2"
}
layer {
  name: "score-dsn3_3"
  type: "Convolution"
  bottom: "conv3_3"
  top: "score-dsn3_3"
  param {
    lr_mult: 0.1
    decay_mult: 1
  }
  param {
    lr_mult: 0.2
    decay_mult: 0
  }
  convolution_param {
    num_output: 1
    kernel_size: 1
    engine: CAFFE
  }
}
layer {
  name: "upsample_4-3_3"
  type: "Deconvolution"
  bottom: "score-dsn3_3"
  top: "score-dsn3_3-up"
  param {
    lr_mult: 0
    decay_mult: 1
  }
  param {
    lr_mult: 0
    decay_mult: 0
  }
  convolution_param {
    num_output: 1
    kernel_size: 8
    stride: 4
  }
}
layer {
  name: "crop"
  type: "Crop"
  bottom: "score-dsn3_3-up"
  bottom: "input_sat"
  top: "upscore-dsn3_3"
}
layer {
  name: "score-dsn4_1"
  type: "Convolution"
  bottom: "conv4_1"
  top: "score-dsn4_1"
  param {
    lr_mult: 0.1
    decay_mult: 1
  }
  param {
    lr_mult: 0.2
    decay_mult: 0
  }
  convolution_param {
    num_output: 1
    kernel_size: 1
    engine: CAFFE
  }
}
layer {
  name: "upsample_8-4_1"
  type: "Deconvolution"
  bottom: "score-dsn4_1"
  top: "score-dsn4_1-up"
  param {
    lr_mult: 0
    decay_mult: 1
  }
  param {
    lr_mult: 0
    decay_mult: 0
  }
  convolution_param {
    num_output: 1
    kernel_size: 16
    stride: 8
  }
}
layer {
  name: "crop"
  type: "Crop"
  bottom: "score-dsn4_1-up"
  bottom: "input_sat"
  top: "upscore-dsn4_1"
}
layer {
  name: "score-dsn4_2"
  type: "Convolution"
  bottom: "conv4_2"
  top: "score-dsn4_2"
  param {
    lr_mult: 0.1
    decay_mult: 1
  }
  param {
    lr_mult: 0.2
    decay_mult: 0
  }
  convolution_param {
    num_output: 1
    kernel_size: 1
    engine: CAFFE
  }
}
layer {
  name: "upsample_8-4_2"
  type: "Deconvolution"
  bottom: "score-dsn4_2"
  top: "score-dsn4_2-up"
  param {
    lr_mult: 0
    decay_mult: 1
  }
  param {
    lr_mult: 0
    decay_mult: 0
  }
  convolution_param {
    num_output: 1
    kernel_size: 16
    stride: 8
  }
}
layer {
  name: "crop"
  type: "Crop"
  bottom: "score-dsn4_2-up"
  bottom: "input_sat"
  top: "upscore-dsn4_2"
}
layer {
  name: "score-dsn4_3"
  type: "Convolution"
  bottom: "conv4_3"
  top: "score-dsn4_3"
  param {
    lr_mult: 0.1
    decay_mult: 1
  }
  param {
    lr_mult: 0.2
    decay_mult: 0
  }
  convolution_param {
    num_output: 1
    kernel_size: 1
    engine: CAFFE
  }
}
layer {
  name: "upsample_8-4_3"
  type: "Deconvolution"
  bottom: "score-dsn4_3"
  top: "score-dsn4_3-up"
  param {
    lr_mult: 0
    decay_mult: 1
  }
  param {
    lr_mult: 0
    decay_mult: 0
  }
  convolution_param {
    num_output: 1
    kernel_size: 16
    stride: 8
  }
}
layer {
  name: "crop"
  type: "Crop"
  bottom: "score-dsn4_3-up"
  bottom: "input_sat"
  top: "upscore-dsn4_3"
}
layer {
  name: "score-dsn5_1"
  type: "Convolution"
  bottom: "conv5_1"
  top: "score-dsn5_1"
  param {
    lr_mult: 0.1
    decay_mult: 1
  }
  param {
    lr_mult: 0.2
    decay_mult: 0
  }
  convolution_param {
    num_output: 1
    kernel_size: 1
    engine: CAFFE
  }
}
layer {
  name: "upsample_16-5_1"
  type: "Deconvolution"
  bottom: "score-dsn5_1"
  top: "score-dsn5_1-up"
  param {
    lr_mult: 0
    decay_mult: 1
  }
  param {
    lr_mult: 0
    decay_mult: 0
  }
  convolution_param {
    num_output: 1
    kernel_size: 32
    stride: 16
  }
}
layer {
  name: "crop"
  type: "Crop"
  bottom: "score-dsn5_1-up"
  bottom: "input_sat"
  top: "upscore-dsn5_1"
}
layer {
  name: "score-dsn5_2"
  type: "Convolution"
  bottom: "conv5_2"
  top: "score-dsn5_2"
  param {
    lr_mult: 0.1
    decay_mult: 1
  }
  param {
    lr_mult: 0.2
    decay_mult: 0
  }
  convolution_param {
    num_output: 1
    kernel_size: 1
    engine: CAFFE
  }
}
layer {
  name: "upsample_16-5_2"
  type: "Deconvolution"
  bottom: "score-dsn5_2"
  top: "score-dsn5_2-up"
  param {
    lr_mult: 0
    decay_mult: 1
  }
  param {
    lr_mult: 0
    decay_mult: 0
  }
  convolution_param {
    num_output: 1
    kernel_size: 32
    stride: 16
  }
}
layer {
  name: "crop"
  type: "Crop"
  bottom: "score-dsn5_2-up"
  bottom: "input_sat"
  top: "upscore-dsn5_2"
}
layer {
  name: "score-dsn5_3"
  type: "Convolution"
  bottom: "conv5_3"
  top: "score-dsn5_3"
  param {
    lr_mult: 0.1
    decay_mult: 1
  }
  param {
    lr_mult: 0.2
    decay_mult: 0
  }
  convolution_param {
    num_output: 1
    kernel_size: 1
    engine: CAFFE
  }
}
layer {
  name: "upsample_16-5_3"
  type: "Deconvolution"
  bottom: "score-dsn5_3"
  top: "score-dsn5_3-up"
  param {
    lr_mult: 0
    decay_mult: 1
  }
  param {
    lr_mult: 0
    decay_mult: 0
  }
  convolution_param {
    num_output: 1
    kernel_size: 32
    stride: 16
  }
}
layer {
  name: "crop"
  type: "Crop"
  bottom: "score-dsn5_3-up"
  bottom: "input_sat"
  top: "upscore-dsn5_3"
}
layer {
  name: "concat-conv-pooling"
  type: "Concat"
  bottom: "upscore-dsn1_1"
  bottom: "upscore-dsn1_2"
  bottom: "upscore-dsn2_1"
  bottom: "upscore-dsn2_2"
  bottom: "upscore-dsn3_1"
  bottom: "upscore-dsn3_2"
  bottom: "upscore-dsn3_3"
  bottom: "upscore-dsn4_1"
  bottom: "upscore-dsn4_2"
  bottom: "upscore-dsn4_3"
  bottom: "upscore-dsn5_1"
  bottom: "upscore-dsn5_2"
  bottom: "upscore-dsn5_3"
  top: "concat-conv-pooling"
  concat_param {
    concat_dim: 1
  }
}
layer {
  name: "new-score-weighting-conv-pooling"
  type: "Convolution"
  bottom: "concat-conv-pooling"
  top: "upscore-concat-conv-pooling"
  param {
    lr_mult: 0.01
    decay_mult: 1
  }
  param {
    lr_mult: 0.02
    decay_mult: 0
  }
  convolution_param {
    num_output: 1
    kernel_size: 1
    bias_filler {
      type: "constant"
      value: 0.2
    }
    engine: CAFFE
  }
}
layer {
  name: "predict_loss"
  type: "SigmoidCrossEntropyLoss"
  bottom: "upscore-concat-conv-pooling"
  bottom: "input_map"
  top: "predict_loss"
  loss_weight: 1
}
layer {
  name: "sigmoid"
  type: "Sigmoid"
  bottom: "upscore-concat-conv-pooling"
  top: "bigscore"
  include {
    phase: TEST
  }
}
layer {
  name: "precision_recall_loss"
  type: "PrecisionRecallLoss"
  bottom: "bigscore"
  bottom: "input_map"
  top: "error_rate"
  include {
    phase: TEST
  }
}
I0727 15:32:53.196703 30424 layer_factory.hpp:76] Creating layer input_sat
I0727 15:32:53.196748 30424 net.cpp:111] Creating Layer input_sat
I0727 15:32:53.196754 30424 net.cpp:434] input_sat -> input_sat
I0727 15:32:53.223567 30452 db_lmdb.cpp:22] Opened lmdb ../../../data/mass_buildings/lmdb/valid_sat_256
I0727 15:32:53.259982 30424 data_layer.cpp:44] output data size: 3,3,256,256
I0727 15:32:53.262670 30424 net.cpp:156] Setting up input_sat
I0727 15:32:53.262696 30424 net.cpp:164] Top shape: 3 3 256 256 (589824)
I0727 15:32:53.262702 30424 layer_factory.hpp:76] Creating layer input_sat_input_sat_0_split
I0727 15:32:53.262712 30424 net.cpp:111] Creating Layer input_sat_input_sat_0_split
I0727 15:32:53.262715 30424 net.cpp:478] input_sat_input_sat_0_split <- input_sat
I0727 15:32:53.262722 30424 net.cpp:434] input_sat_input_sat_0_split -> input_sat_input_sat_0_split_0
I0727 15:32:53.262729 30424 net.cpp:434] input_sat_input_sat_0_split -> input_sat_input_sat_0_split_1
…
I0727 15:32:53.262766 30424 net.cpp:434] input_sat_input_sat_0_split -> input_sat_input_sat_0_split_9
I0727 15:32:53.262770 30424 net.cpp:434] input_sat_input_sat_0_split -> input_sat_input_sat_0_split_10
I0727 15:32:53.262775 30424 net.cpp:434] input_sat_input_sat_0_split -> input_sat_input_sat_0_split_11
I0727 15:32:53.262780 30424 net.cpp:434] input_sat_input_sat_0_split -> input_sat_input_sat_0_split_12
I0727 15:32:53.262784 30424 net.cpp:434] input_sat_input_sat_0_split -> input_sat_input_sat_0_split_13
I0727 15:32:53.262792 30424 net.cpp:156] Setting up input_sat_input_sat_0_split
I0727 15:32:53.262796 30424 net.cpp:164] Top shape: 3 3 256 256 (589824)
I0727 15:32:53.262800 30424 net.cpp:164] Top shape: 3 3 256 256 (589824)
I0727 15:32:53.262804 30424 net.cpp:164] Top shape: 3 3 256 256 (589824)
I0727 15:32:53.262806 30424 net.cpp:164] Top shape: 3 3 256 256 (589824)
I0727 15:32:53.262809 30424 net.cpp:164] Top shape: 3 3 256 256 (589824)
I0727 15:32:53.262812 30424 net.cpp:164] Top shape: 3 3 256 256 (589824)
I0727 15:32:53.262815 30424 net.cpp:164] Top shape: 3 3 256 256 (589824)
I0727 15:32:53.262819 30424 net.cpp:164] Top shape: 3 3 256 256 (589824)
I0727 15:32:53.262821 30424 net.cpp:164] Top shape: 3 3 256 256 (589824)
I0727 15:32:53.262823 30424 net.cpp:164] Top shape: 3 3 256 256 (589824)
I0727 15:32:53.262826 30424 net.cpp:164] Top shape: 3 3 256 256 (589824)
I0727 15:32:53.262830 30424 net.cpp:164] Top shape: 3 3 256 256 (589824)
I0727 15:32:53.262832 30424 net.cpp:164] Top shape: 3 3 256 256 (589824)
I0727 15:32:53.262835 30424 net.cpp:164] Top shape: 3 3 256 256 (589824)
I0727 15:32:53.262838 30424 layer_factory.hpp:76] Creating layer input_map
I0727 15:32:53.262867 30424 net.cpp:111] Creating Layer input_map
I0727 15:32:53.262883 30424 net.cpp:434] input_map -> input_map
I0727 15:32:53.263422 30454 db_lmdb.cpp:22] Opened lmdb ../../../data/mass_buildings/lmdb/valid_map_256
I0727 15:32:53.266373 30453 blocking_queue.cpp:50] Waiting for data
I0727 15:32:53.274916 30424 data_layer.cpp:44] output data size: 3,1,256,256
I0727 15:32:53.276299 30424 net.cpp:156] Setting up input_map
I0727 15:32:53.276311 30424 net.cpp:164] Top shape: 3 1 256 256 (196608)
I0727 15:32:53.276315 30424 layer_factory.hpp:76] Creating layer input_map_input_map_0_split
I0727 15:32:53.276325 30424 net.cpp:111] Creating Layer input_map_input_map_0_split
I0727 15:32:53.276329 30424 net.cpp:478] input_map_input_map_0_split <- input_map
I0727 15:32:53.276335 30424 net.cpp:434] input_map_input_map_0_split -> input_map_input_map_0_split_0
I0727 15:32:53.276341 30424 net.cpp:434] input_map_input_map_0_split -> input_map_input_map_0_split_1
I0727 15:32:53.276347 30424 net.cpp:156] Setting up input_map_input_map_0_split
I0727 15:32:53.276351 30424 net.cpp:164] Top shape: 3 1 256 256 (196608)
I0727 15:32:53.276355 30424 net.cpp:164] Top shape: 3 1 256 256 (196608)
I0727 15:32:53.276357 30424 layer_factory.hpp:76] Creating layer conv1_1
I0727 15:32:53.276363 30424 net.cpp:111] Creating Layer conv1_1
I0727 15:32:53.276366 30424 net.cpp:478] conv1_1 <- input_sat_input_sat_0_split_0
I0727 15:32:53.276371 30424 net.cpp:434] conv1_1 -> conv1_1
I0727 15:32:53.276476 30424 net.cpp:156] Setting up conv1_1
I0727 15:32:53.276482 30424 net.cpp:164] Top shape: 3 64 324 324 (20155392)
I0727 15:32:53.276490 30424 layer_factory.hpp:76] Creating layer relu1_1
I0727 15:32:53.276495 30424 net.cpp:111] Creating Layer relu1_1
I0727 15:32:53.276497 30424 net.cpp:478] relu1_1 <- conv1_1
I0727 15:32:53.276501 30424 net.cpp:420] relu1_1 -> conv1_1 (in-place)
I0727 15:32:53.276553 30424 net.cpp:156] Setting up relu1_1
I0727 15:32:53.276557 30424 net.cpp:164] Top shape: 3 64 324 324 (20155392)
I0727 15:32:53.276561 30424 layer_factory.hpp:76] Creating layer conv1_1_relu1_1_0_split
I0727 15:32:53.276564 30424 net.cpp:111] Creating Layer conv1_1_relu1_1_0_split
I0727 15:32:53.276567 30424 net.cpp:478] conv1_1_relu1_1_0_split <- conv1_1
I0727 15:32:53.276571 30424 net.cpp:434] conv1_1_relu1_1_0_split -> conv1_1_relu1_1_0_split_0
I0727 15:32:53.276576 30424 net.cpp:434] conv1_1_relu1_1_0_split -> conv1_1_relu1_1_0_split_1
I0727 15:32:53.276579 30424 net.cpp:156] Setting up conv1_1_relu1_1_0_split
I0727 15:32:53.276583 30424 net.cpp:164] Top shape: 3 64 324 324 (20155392)
I0727 15:32:53.276587 30424 net.cpp:164] Top shape: 3 64 324 324 (20155392)
I0727 15:32:53.276588 30424 layer_factory.hpp:76] Creating layer conv1_2
I0727 15:32:53.276593 30424 net.cpp:111] Creating Layer conv1_2
I0727 15:32:53.276595 30424 net.cpp:478] conv1_2 <- conv1_1_relu1_1_0_split_0
I0727 15:32:53.276599 30424 net.cpp:434] conv1_2 -> conv1_2
I0727 15:32:53.276957 30424 net.cpp:156] Setting up conv1_2
I0727 15:32:53.276967 30424 net.cpp:164] Top shape: 3 64 324 324 (20155392)
I0727 15:32:53.276973 30424 layer_factory.hpp:76] Creating layer relu1_2
I0727 15:32:53.276978 30424 net.cpp:111] Creating Layer relu1_2
I0727 15:32:53.276983 30424 net.cpp:478] relu1_2 <- conv1_2
I0727 15:32:53.276985 30424 net.cpp:420] relu1_2 -> conv1_2 (in-place)
I0727 15:32:53.277091 30424 net.cpp:156] Setting up relu1_2
I0727 15:32:53.277101 30424 net.cpp:164] Top shape: 3 64 324 324 (20155392)
I0727 15:32:53.277104 30424 layer_factory.hpp:76] Creating layer conv1_2_relu1_2_0_split
I0727 15:32:53.277109 30424 net.cpp:111] Creating Layer conv1_2_relu1_2_0_split
I0727 15:32:53.277112 30424 net.cpp:478] conv1_2_relu1_2_0_split <- conv1_2
I0727 15:32:53.277117 30424 net.cpp:434] conv1_2_relu1_2_0_split -> conv1_2_relu1_2_0_split_0
I0727 15:32:53.277122 30424 net.cpp:434] conv1_2_relu1_2_0_split -> conv1_2_relu1_2_0_split_1
I0727 15:32:53.277127 30424 net.cpp:156] Setting up conv1_2_relu1_2_0_split
I0727 15:32:53.277130 30424 net.cpp:164] Top shape: 3 64 324 324 (20155392)
I0727 15:32:53.277133 30424 net.cpp:164] Top shape: 3 64 324 324 (20155392)
I0727 15:32:53.277137 30424 layer_factory.hpp:76] Creating layer pool1
I0727 15:32:53.277142 30424 net.cpp:111] Creating Layer pool1
I0727 15:32:53.277144 30424 net.cpp:478] pool1 <- conv1_2_relu1_2_0_split_0
I0727 15:32:53.277148 30424 net.cpp:434] pool1 -> pool1
I0727 15:32:53.277268 30424 net.cpp:156] Setting up pool1
I0727 15:32:53.277276 30424 net.cpp:164] Top shape: 3 64 162 162 (5038848)
I0727 15:32:53.277279 30424 layer_factory.hpp:76] Creating layer conv2_1
I0727 15:32:53.277284 30424 net.cpp:111] Creating Layer conv2_1
I0727 15:32:53.277290 30424 net.cpp:478] conv2_1 <- pool1
I0727 15:32:53.277294 30424 net.cpp:434] conv2_1 -> conv2_1
I0727 15:32:53.277614 30424 net.cpp:156] Setting up conv2_1
I0727 15:32:53.277623 30424 net.cpp:164] Top shape: 3 128 162 162 (10077696)
I0727 15:32:53.277631 30424 layer_factory.hpp:76] Creating layer relu2_1
I0727 15:32:53.277636 30424 net.cpp:111] Creating Layer relu2_1
I0727 15:32:53.277638 30424 net.cpp:478] relu2_1 <- conv2_1
I0727 15:32:53.277642 30424 net.cpp:420] relu2_1 -> conv2_1 (in-place)
I0727 15:32:53.277681 30424 net.cpp:156] Setting up relu2_1
I0727 15:32:53.277686 30424 net.cpp:164] Top shape: 3 128 162 162 (10077696)
I0727 15:32:53.277689 30424 layer_factory.hpp:76] Creating layer conv2_1_relu2_1_0_split
I0727 15:32:53.277693 30424 net.cpp:111] Creating Layer conv2_1_relu2_1_0_split
I0727 15:32:53.277695 30424 net.cpp:478] conv2_1_relu2_1_0_split <- conv2_1
I0727 15:32:53.277699 30424 net.cpp:434] conv2_1_relu2_1_0_split -> conv2_1_relu2_1_0_split_0
I0727 15:32:53.277704 30424 net.cpp:434] conv2_1_relu2_1_0_split -> conv2_1_relu2_1_0_split_1
I0727 15:32:53.277709 30424 net.cpp:156] Setting up conv2_1_relu2_1_0_split
I0727 15:32:53.277711 30424 net.cpp:164] Top shape: 3 128 162 162 (10077696)
I0727 15:32:53.277715 30424 net.cpp:164] Top shape: 3 128 162 162 (10077696)
I0727 15:32:53.277717 30424 layer_factory.hpp:76] Creating layer conv2_2
I0727 15:32:53.277722 30424 net.cpp:111] Creating Layer conv2_2
I0727 15:32:53.277725 30424 net.cpp:478] conv2_2 <- conv2_1_relu2_1_0_split_0
I0727 15:32:53.277729 30424 net.cpp:434] conv2_2 -> conv2_2
I0727 15:32:53.278079 30424 net.cpp:156] Setting up conv2_2
I0727 15:32:53.278087 30424 net.cpp:164] Top shape: 3 128 162 162 (10077696)
I0727 15:32:53.278092 30424 layer_factory.hpp:76] Creating layer relu2_2
I0727 15:32:53.278097 30424 net.cpp:111] Creating Layer relu2_2
I0727 15:32:53.278100 30424 net.cpp:478] relu2_2 <- conv2_2
I0727 15:32:53.278105 30424 net.cpp:420] relu2_2 -> conv2_2 (in-place)
I0727 15:32:53.278146 30424 net.cpp:156] Setting up relu2_2
I0727 15:32:53.278149 30424 net.cpp:164] Top shape: 3 128 162 162 (10077696)
I0727 15:32:53.278152 30424 layer_factory.hpp:76] Creating layer conv2_2_relu2_2_0_split
I0727 15:32:53.278157 30424 net.cpp:111] Creating Layer conv2_2_relu2_2_0_split
I0727 15:32:53.278161 30424 net.cpp:478] conv2_2_relu2_2_0_split <- conv2_2
I0727 15:32:53.278163 30424 net.cpp:434] conv2_2_relu2_2_0_split -> conv2_2_relu2_2_0_split_0
I0727 15:32:53.278168 30424 net.cpp:434] conv2_2_relu2_2_0_split -> conv2_2_relu2_2_0_split_1
I0727 15:32:53.278173 30424 net.cpp:156] Setting up conv2_2_relu2_2_0_split
I0727 15:32:53.278177 30424 net.cpp:164] Top shape: 3 128 162 162 (10077696)
I0727 15:32:53.278179 30424 net.cpp:164] Top shape: 3 128 162 162 (10077696)
I0727 15:32:53.278182 30424 layer_factory.hpp:76] Creating layer pool2
I0727 15:32:53.278187 30424 net.cpp:111] Creating Layer pool2
I0727 15:32:53.278189 30424 net.cpp:478] pool2 <- conv2_2_relu2_2_0_split_0
I0727 15:32:53.278192 30424 net.cpp:434] pool2 -> pool2
I0727 15:32:53.278228 30424 net.cpp:156] Setting up pool2
I0727 15:32:53.278234 30424 net.cpp:164] Top shape: 3 128 81 81 (2519424)
I0727 15:32:53.278236 30424 layer_factory.hpp:76] Creating layer conv3_1
I0727 15:32:53.278240 30424 net.cpp:111] Creating Layer conv3_1
I0727 15:32:53.278244 30424 net.cpp:478] conv3_1 <- pool2
I0727 15:32:53.278246 30424 net.cpp:434] conv3_1 -> conv3_1
I0727 15:32:53.278661 30424 net.cpp:156] Setting up conv3_1
I0727 15:32:53.278669 30424 net.cpp:164] Top shape: 3 256 81 81 (5038848)
I0727 15:32:53.278676 30424 layer_factory.hpp:76] Creating layer relu3_1
I0727 15:32:53.278681 30424 net.cpp:111] Creating Layer relu3_1
I0727 15:32:53.278683 30424 net.cpp:478] relu3_1 <- conv3_1
I0727 15:32:53.278687 30424 net.cpp:420] relu3_1 -> conv3_1 (in-place)
I0727 15:32:53.278798 30424 net.cpp:156] Setting up relu3_1
I0727 15:32:53.278805 30424 net.cpp:164] Top shape: 3 256 81 81 (5038848)
I0727 15:32:53.278810 30424 layer_factory.hpp:76] Creating layer conv3_1_relu3_1_0_split
I0727 15:32:53.278816 30424 net.cpp:111] Creating Layer conv3_1_relu3_1_0_split
I0727 15:32:53.278820 30424 net.cpp:478] conv3_1_relu3_1_0_split <- conv3_1
I0727 15:32:53.278823 30424 net.cpp:434] conv3_1_relu3_1_0_split -> conv3_1_relu3_1_0_split_0
I0727 15:32:53.278827 30424 net.cpp:434] conv3_1_relu3_1_0_split -> conv3_1_relu3_1_0_split_1
I0727 15:32:53.278832 30424 net.cpp:156] Setting up conv3_1_relu3_1_0_split
I0727 15:32:53.278836 30424 net.cpp:164] Top shape: 3 256 81 81 (5038848)
I0727 15:32:53.278839 30424 net.cpp:164] Top shape: 3 256 81 81 (5038848)
I0727 15:32:53.278842 30424 layer_factory.hpp:76] Creating layer conv3_2
I0727 15:32:53.278846 30424 net.cpp:111] Creating Layer conv3_2
I0727 15:32:53.278849 30424 net.cpp:478] conv3_2 <- conv3_1_relu3_1_0_split_0
I0727 15:32:53.278852 30424 net.cpp:434] conv3_2 -> conv3_2
I0727 15:32:53.279572 30424 net.cpp:156] Setting up conv3_2
I0727 15:32:53.279582 30424 net.cpp:164] Top shape: 3 256 81 81 (5038848)
I0727 15:32:53.279587 30424 layer_factory.hpp:76] Creating layer relu3_2
I0727 15:32:53.279592 30424 net.cpp:111] Creating Layer relu3_2
I0727 15:32:53.279594 30424 net.cpp:478] relu3_2 <- conv3_2
I0727 15:32:53.279598 30424 net.cpp:420] relu3_2 -> conv3_2 (in-place)
I0727 15:32:53.279638 30424 net.cpp:156] Setting up relu3_2
I0727 15:32:53.279642 30424 net.cpp:164] Top shape: 3 256 81 81 (5038848)
I0727 15:32:53.279645 30424 layer_factory.hpp:76] Creating layer conv3_2_relu3_2_0_split
I0727 15:32:53.279649 30424 net.cpp:111] Creating Layer conv3_2_relu3_2_0_split
I0727 15:32:53.279651 30424 net.cpp:478] conv3_2_relu3_2_0_split <- conv3_2
I0727 15:32:53.279655 30424 net.cpp:434] conv3_2_relu3_2_0_split -> conv3_2_relu3_2_0_split_0
I0727 15:32:53.279659 30424 net.cpp:434] conv3_2_relu3_2_0_split -> conv3_2_relu3_2_0_split_1
I0727 15:32:53.279664 30424 net.cpp:156] Setting up conv3_2_relu3_2_0_split
I0727 15:32:53.279667 30424 net.cpp:164] Top shape: 3 256 81 81 (5038848)
I0727 15:32:53.279670 30424 net.cpp:164] Top shape: 3 256 81 81 (5038848)
I0727 15:32:53.279673 30424 layer_factory.hpp:76] Creating layer conv3_3
I0727 15:32:53.279677 30424 net.cpp:111] Creating Layer conv3_3
I0727 15:32:53.279680 30424 net.cpp:478] conv3_3 <- conv3_2_relu3_2_0_split_0
I0727 15:32:53.279685 30424 net.cpp:434] conv3_3 -> conv3_3
I0727 15:32:53.280401 30424 net.cpp:156] Setting up conv3_3
I0727 15:32:53.280411 30424 net.cpp:164] Top shape: 3 256 81 81 (5038848)
I0727 15:32:53.280416 30424 layer_factory.hpp:76] Creating layer relu3_3
I0727 15:32:53.280421 30424 net.cpp:111] Creating Layer relu3_3
I0727 15:32:53.280423 30424 net.cpp:478] relu3_3 <- conv3_3
I0727 15:32:53.280427 30424 net.cpp:420] relu3_3 -> conv3_3 (in-place)
I0727 15:32:53.280468 30424 net.cpp:156] Setting up relu3_3
I0727 15:32:53.280473 30424 net.cpp:164] Top shape: 3 256 81 81 (5038848)
I0727 15:32:53.280477 30424 layer_factory.hpp:76] Creating layer conv3_3_relu3_3_0_split
I0727 15:32:53.280480 30424 net.cpp:111] Creating Layer conv3_3_relu3_3_0_split
I0727 15:32:53.280483 30424 net.cpp:478] conv3_3_relu3_3_0_split <- conv3_3
I0727 15:32:53.280486 30424 net.cpp:434] conv3_3_relu3_3_0_split -> conv3_3_relu3_3_0_split_0
I0727 15:32:53.280491 30424 net.cpp:434] conv3_3_relu3_3_0_split -> conv3_3_relu3_3_0_split_1
I0727 15:32:53.280495 30424 net.cpp:156] Setting up conv3_3_relu3_3_0_split
I0727 15:32:53.280499 30424 net.cpp:164] Top shape: 3 256 81 81 (5038848)
I0727 15:32:53.280503 30424 net.cpp:164] Top shape: 3 256 81 81 (5038848)
I0727 15:32:53.280504 30424 layer_factory.hpp:76] Creating layer pool3
I0727 15:32:53.280509 30424 net.cpp:111] Creating Layer pool3
I0727 15:32:53.280513 30424 net.cpp:478] pool3 <- conv3_3_relu3_3_0_split_0
I0727 15:32:53.280515 30424 net.cpp:434] pool3 -> pool3
I0727 15:32:53.280629 30424 net.cpp:156] Setting up pool3
I0727 15:32:53.280637 30424 net.cpp:164] Top shape: 3 256 41 41 (1291008)
I0727 15:32:53.280640 30424 layer_factory.hpp:76] Creating layer conv4_1
I0727 15:32:53.280644 30424 net.cpp:111] Creating Layer conv4_1
I0727 15:32:53.280648 30424 net.cpp:478] conv4_1 <- pool3
I0727 15:32:53.280655 30424 net.cpp:434] conv4_1 -> conv4_1
I0727 15:32:53.282074 30424 net.cpp:156] Setting up conv4_1
I0727 15:32:53.282089 30424 net.cpp:164] Top shape: 3 512 41 41 (2582016)
I0727 15:32:53.282095 30424 layer_factory.hpp:76] Creating layer relu4_1
I0727 15:32:53.282101 30424 net.cpp:111] Creating Layer relu4_1
I0727 15:32:53.282104 30424 net.cpp:478] relu4_1 <- conv4_1
I0727 15:32:53.282109 30424 net.cpp:420] relu4_1 -> conv4_1 (in-place)
I0727 15:32:53.282155 30424 net.cpp:156] Setting up relu4_1
I0727 15:32:53.282160 30424 net.cpp:164] Top shape: 3 512 41 41 (2582016)
I0727 15:32:53.282162 30424 layer_factory.hpp:76] Creating layer conv4_1_relu4_1_0_split
I0727 15:32:53.282166 30424 net.cpp:111] Creating Layer conv4_1_relu4_1_0_split
I0727 15:32:53.282169 30424 net.cpp:478] conv4_1_relu4_1_0_split <- conv4_1
I0727 15:32:53.282173 30424 net.cpp:434] conv4_1_relu4_1_0_split -> conv4_1_relu4_1_0_split_0
I0727 15:32:53.282177 30424 net.cpp:434] conv4_1_relu4_1_0_split -> conv4_1_relu4_1_0_split_1
I0727 15:32:53.282182 30424 net.cpp:156] Setting up conv4_1_relu4_1_0_split
I0727 15:32:53.282186 30424 net.cpp:164] Top shape: 3 512 41 41 (2582016)
I0727 15:32:53.282189 30424 net.cpp:164] Top shape: 3 512 41 41 (2582016)
I0727 15:32:53.282191 30424 layer_factory.hpp:76] Creating layer conv4_2
I0727 15:32:53.282196 30424 net.cpp:111] Creating Layer conv4_2
I0727 15:32:53.282199 30424 net.cpp:478] conv4_2 <- conv4_1_relu4_1_0_split_0
I0727 15:32:53.282203 30424 net.cpp:434] conv4_2 -> conv4_2
I0727 15:32:53.285300 30424 net.cpp:156] Setting up conv4_2
I0727 15:32:53.285329 30424 net.cpp:164] Top shape: 3 512 41 41 (2582016)
I0727 15:32:53.285359 30424 layer_factory.hpp:76] Creating layer relu4_2
I0727 15:32:53.285382 30424 net.cpp:111] Creating Layer relu4_2
I0727 15:32:53.285387 30424 net.cpp:478] relu4_2 <- conv4_2
I0727 15:32:53.285390 30424 net.cpp:420] relu4_2 -> conv4_2 (in-place)
I0727 15:32:53.285446 30424 net.cpp:156] Setting up relu4_2
I0727 15:32:53.285450 30424 net.cpp:164] Top shape: 3 512 41 41 (2582016)
I0727 15:32:53.285454 30424 layer_factory.hpp:76] Creating layer conv4_2_relu4_2_0_split
I0727 15:32:53.285457 30424 net.cpp:111] Creating Layer conv4_2_relu4_2_0_split
I0727 15:32:53.285460 30424 net.cpp:478] conv4_2_relu4_2_0_split <- conv4_2
I0727 15:32:53.285465 30424 net.cpp:434] conv4_2_relu4_2_0_split -> conv4_2_relu4_2_0_split_0
I0727 15:32:53.285470 30424 net.cpp:434] conv4_2_relu4_2_0_split -> conv4_2_relu4_2_0_split_1
I0727 15:32:53.285475 30424 net.cpp:156] Setting up conv4_2_relu4_2_0_split
I0727 15:32:53.285477 30424 net.cpp:164] Top shape: 3 512 41 41 (2582016)
I0727 15:32:53.285481 30424 net.cpp:164] Top shape: 3 512 41 41 (2582016)
I0727 15:32:53.285483 30424 layer_factory.hpp:76] Creating layer conv4_3
I0727 15:32:53.285488 30424 net.cpp:111] Creating Layer conv4_3
I0727 15:32:53.285491 30424 net.cpp:478] conv4_3 <- conv4_2_relu4_2_0_split_0
I0727 15:32:53.285495 30424 net.cpp:434] conv4_3 -> conv4_3
I0727 15:32:53.288594 30424 net.cpp:156] Setting up conv4_3
I0727 15:32:53.288621 30424 net.cpp:164] Top shape: 3 512 41 41 (2582016)
I0727 15:32:53.288630 30424 layer_factory.hpp:76] Creating layer relu4_3
I0727 15:32:53.288637 30424 net.cpp:111] Creating Layer relu4_3
I0727 15:32:53.288642 30424 net.cpp:478] relu4_3 <- conv4_3
I0727 15:32:53.288647 30424 net.cpp:420] relu4_3 -> conv4_3 (in-place)
I0727 15:32:53.288710 30424 net.cpp:156] Setting up relu4_3
I0727 15:32:53.288717 30424 net.cpp:164] Top shape: 3 512 41 41 (2582016)
I0727 15:32:53.288719 30424 layer_factory.hpp:76] Creating layer conv4_3_relu4_3_0_split
I0727 15:32:53.288724 30424 net.cpp:111] Creating Layer conv4_3_relu4_3_0_split
I0727 15:32:53.288727 30424 net.cpp:478] conv4_3_relu4_3_0_split <- conv4_3
I0727 15:32:53.288733 30424 net.cpp:434] conv4_3_relu4_3_0_split -> conv4_3_relu4_3_0_split_0
I0727 15:32:53.288738 30424 net.cpp:434] conv4_3_relu4_3_0_split -> conv4_3_relu4_3_0_split_1
I0727 15:32:53.288743 30424 net.cpp:156] Setting up conv4_3_relu4_3_0_split
I0727 15:32:53.288746 30424 net.cpp:164] Top shape: 3 512 41 41 (2582016)
I0727 15:32:53.288756 30424 net.cpp:164] Top shape: 3 512 41 41 (2582016)
I0727 15:32:53.288759 30424 layer_factory.hpp:76] Creating layer pool4
I0727 15:32:53.288764 30424 net.cpp:111] Creating Layer pool4
I0727 15:32:53.288767 30424 net.cpp:478] pool4 <- conv4_3_relu4_3_0_split_0
I0727 15:32:53.288771 30424 net.cpp:434] pool4 -> pool4
I0727 15:32:53.288938 30424 net.cpp:156] Setting up pool4
I0727 15:32:53.288946 30424 net.cpp:164] Top shape: 3 512 21 21 (677376)
I0727 15:32:53.288949 30424 layer_factory.hpp:76] Creating layer conv5_1
I0727 15:32:53.288955 30424 net.cpp:111] Creating Layer conv5_1
I0727 15:32:53.288959 30424 net.cpp:478] conv5_1 <- pool4
I0727 15:32:53.288962 30424 net.cpp:434] conv5_1 -> conv5_1
I0727 15:32:53.292187 30424 net.cpp:156] Setting up conv5_1
I0727 15:32:53.292208 30424 net.cpp:164] Top shape: 3 512 21 21 (677376)
I0727 15:32:53.292217 30424 layer_factory.hpp:76] Creating layer relu5_1
I0727 15:32:53.292223 30424 net.cpp:111] Creating Layer relu5_1
I0727 15:32:53.292227 30424 net.cpp:478] relu5_1 <- conv5_1
I0727 15:32:53.292232 30424 net.cpp:420] relu5_1 -> conv5_1 (in-place)
I0727 15:32:53.292284 30424 net.cpp:156] Setting up relu5_1
I0727 15:32:53.292289 30424 net.cpp:164] Top shape: 3 512 21 21 (677376)
I0727 15:32:53.292292 30424 layer_factory.hpp:76] Creating layer conv5_1_relu5_1_0_split
I0727 15:32:53.292296 30424 net.cpp:111] Creating Layer conv5_1_relu5_1_0_split
I0727 15:32:53.292299 30424 net.cpp:478] conv5_1_relu5_1_0_split <- conv5_1
I0727 15:32:53.292304 30424 net.cpp:434] conv5_1_relu5_1_0_split -> conv5_1_relu5_1_0_split_0
I0727 15:32:53.292309 30424 net.cpp:434] conv5_1_relu5_1_0_split -> conv5_1_relu5_1_0_split_1
I0727 15:32:53.292315 30424 net.cpp:156] Setting up conv5_1_relu5_1_0_split
I0727 15:32:53.292317 30424 net.cpp:164] Top shape: 3 512 21 21 (677376)
I0727 15:32:53.292321 30424 net.cpp:164] Top shape: 3 512 21 21 (677376)
I0727 15:32:53.292323 30424 layer_factory.hpp:76] Creating layer conv5_2
I0727 15:32:53.292328 30424 net.cpp:111] Creating Layer conv5_2
I0727 15:32:53.292331 30424 net.cpp:478] conv5_2 <- conv5_1_relu5_1_0_split_0
I0727 15:32:53.292335 30424 net.cpp:434] conv5_2 -> conv5_2
I0727 15:32:53.295554 30424 net.cpp:156] Setting up conv5_2
I0727 15:32:53.295577 30424 net.cpp:164] Top shape: 3 512 21 21 (677376)
I0727 15:32:53.295603 30424 layer_factory.hpp:76] Creating layer relu5_2
I0727 15:32:53.295619 30424 net.cpp:111] Creating Layer relu5_2
I0727 15:32:53.295624 30424 net.cpp:478] relu5_2 <- conv5_2
I0727 15:32:53.295637 30424 net.cpp:420] relu5_2 -> conv5_2 (in-place)
I0727 15:32:53.295699 30424 net.cpp:156] Setting up relu5_2
I0727 15:32:53.295704 30424 net.cpp:164] Top shape: 3 512 21 21 (677376)
I0727 15:32:53.295707 30424 layer_factory.hpp:76] Creating layer conv5_2_relu5_2_0_split
I0727 15:32:53.295711 30424 net.cpp:111] Creating Layer conv5_2_relu5_2_0_split
I0727 15:32:53.295714 30424 net.cpp:478] conv5_2_relu5_2_0_split <- conv5_2
I0727 15:32:53.295718 30424 net.cpp:434] conv5_2_relu5_2_0_split -> conv5_2_relu5_2_0_split_0
I0727 15:32:53.295723 30424 net.cpp:434] conv5_2_relu5_2_0_split -> conv5_2_relu5_2_0_split_1
I0727 15:32:53.295728 30424 net.cpp:156] Setting up conv5_2_relu5_2_0_split
I0727 15:32:53.295732 30424 net.cpp:164] Top shape: 3 512 21 21 (677376)
I0727 15:32:53.295735 30424 net.cpp:164] Top shape: 3 512 21 21 (677376)
I0727 15:32:53.295737 30424 layer_factory.hpp:76] Creating layer conv5_3
I0727 15:32:53.295742 30424 net.cpp:111] Creating Layer conv5_3
I0727 15:32:53.295745 30424 net.cpp:478] conv5_3 <- conv5_2_relu5_2_0_split_0
I0727 15:32:53.295749 30424 net.cpp:434] conv5_3 -> conv5_3
I0727 15:32:53.298969 30424 net.cpp:156] Setting up conv5_3
I0727 15:32:53.298990 30424 net.cpp:164] Top shape: 3 512 21 21 (677376)
I0727 15:32:53.298997 30424 layer_factory.hpp:76] Creating layer relu5_3
I0727 15:32:53.299003 30424 net.cpp:111] Creating Layer relu5_3
I0727 15:32:53.299008 30424 net.cpp:478] relu5_3 <- conv5_3
I0727 15:32:53.299013 30424 net.cpp:420] relu5_3 -> conv5_3 (in-place)
I0727 15:32:53.299068 30424 net.cpp:156] Setting up relu5_3
I0727 15:32:53.299079 30424 net.cpp:164] Top shape: 3 512 21 21 (677376)
I0727 15:32:53.299083 30424 layer_factory.hpp:76] Creating layer score-dsn1_1
I0727 15:32:53.299088 30424 net.cpp:111] Creating Layer score-dsn1_1
I0727 15:32:53.299091 30424 net.cpp:478] score-dsn1_1 <- conv1_1_relu1_1_0_split_1
I0727 15:32:53.299096 30424 net.cpp:434] score-dsn1_1 -> score-dsn1_1-up
I0727 15:32:53.299208 30424 net.cpp:156] Setting up score-dsn1_1
I0727 15:32:53.299214 30424 net.cpp:164] Top shape: 3 1 324 324 (314928)
I0727 15:32:53.299218 30424 layer_factory.hpp:76] Creating layer crop
I0727 15:32:53.299223 30424 net.cpp:111] Creating Layer crop
I0727 15:32:53.299226 30424 net.cpp:478] crop <- score-dsn1_1-up
I0727 15:32:53.299231 30424 net.cpp:478] crop <- input_sat_input_sat_0_split_1
I0727 15:32:53.299234 30424 net.cpp:434] crop -> upscore-dsn1_1
I0727 15:32:53.299262 30424 net.cpp:156] Setting up crop
I0727 15:32:53.299265 30424 net.cpp:164] Top shape: 3 1 256 256 (196608)
I0727 15:32:53.299268 30424 layer_factory.hpp:76] Creating layer score-dsn1_2
I0727 15:32:53.299273 30424 net.cpp:111] Creating Layer score-dsn1_2
I0727 15:32:53.299275 30424 net.cpp:478] score-dsn1_2 <- conv1_2_relu1_2_0_split_1
I0727 15:32:53.299279 30424 net.cpp:434] score-dsn1_2 -> score-dsn1_2-up
I0727 15:32:53.299688 30424 net.cpp:156] Setting up score-dsn1_2
I0727 15:32:53.299698 30424 net.cpp:164] Top shape: 3 1 324 324 (314928)
I0727 15:32:53.299705 30424 layer_factory.hpp:76] Creating layer crop
I0727 15:32:53.299708 30424 net.cpp:111] Creating Layer crop
I0727 15:32:53.299711 30424 net.cpp:478] crop <- score-dsn1_2-up
I0727 15:32:53.299716 30424 net.cpp:478] crop <- input_sat_input_sat_0_split_2
I0727 15:32:53.299720 30424 net.cpp:434] crop -> upscore-dsn1_2
I0727 15:32:53.299746 30424 net.cpp:156] Setting up crop
I0727 15:32:53.299751 30424 net.cpp:164] Top shape: 3 1 256 256 (196608)
I0727 15:32:53.299753 30424 layer_factory.hpp:76] Creating layer score-dsn2_1
I0727 15:32:53.299758 30424 net.cpp:111] Creating Layer score-dsn2_1
I0727 15:32:53.299762 30424 net.cpp:478] score-dsn2_1 <- conv2_1_relu2_1_0_split_1
I0727 15:32:53.299765 30424 net.cpp:434] score-dsn2_1 -> score-dsn2_1
I0727 15:32:53.299825 30424 net.cpp:156] Setting up score-dsn2_1
I0727 15:32:53.299830 30424 net.cpp:164] Top shape: 3 1 162 162 (78732)
I0727 15:32:53.299834 30424 layer_factory.hpp:76] Creating layer upsample_2-2_1
I0727 15:32:53.299839 30424 net.cpp:111] Creating Layer upsample_2-2_1
I0727 15:32:53.299842 30424 net.cpp:478] upsample_2-2_1 <- score-dsn2_1
I0727 15:32:53.299846 30424 net.cpp:434] upsample_2-2_1 -> score-dsn2_1-up
I0727 15:32:53.299952 30424 net.cpp:156] Setting up upsample_2-2_1
I0727 15:32:53.299958 30424 net.cpp:164] Top shape: 3 1 326 326 (318828)
I0727 15:32:53.299968 30424 layer_factory.hpp:76] Creating layer crop
I0727 15:32:53.299971 30424 net.cpp:111] Creating Layer crop
I0727 15:32:53.299974 30424 net.cpp:478] crop <- score-dsn2_1-up
I0727 15:32:53.299978 30424 net.cpp:478] crop <- input_sat_input_sat_0_split_3
I0727 15:32:53.299983 30424 net.cpp:434] crop -> upscore-dsn2_1
I0727 15:32:53.300010 30424 net.cpp:156] Setting up crop
I0727 15:32:53.300014 30424 net.cpp:164] Top shape: 3 1 256 256 (196608)
I0727 15:32:53.300017 30424 layer_factory.hpp:76] Creating layer score-dsn2_2
I0727 15:32:53.300021 30424 net.cpp:111] Creating Layer score-dsn2_2
I0727 15:32:53.300024 30424 net.cpp:478] score-dsn2_2 <- conv2_2_relu2_2_0_split_1
I0727 15:32:53.300029 30424 net.cpp:434] score-dsn2_2 -> score-dsn2_2
I0727 15:32:53.300079 30424 net.cpp:156] Setting up score-dsn2_2
I0727 15:32:53.300084 30424 net.cpp:164] Top shape: 3 1 162 162 (78732)
I0727 15:32:53.300088 30424 layer_factory.hpp:76] Creating layer upsample_2-2_2
I0727 15:32:53.300093 30424 net.cpp:111] Creating Layer upsample_2-2_2
I0727 15:32:53.300096 30424 net.cpp:478] upsample_2-2_2 <- score-dsn2_2
I0727 15:32:53.300101 30424 net.cpp:434] upsample_2-2_2 -> score-dsn2_2-up
I0727 15:32:53.300482 30424 net.cpp:156] Setting up upsample_2-2_2
I0727 15:32:53.300492 30424 net.cpp:164] Top shape: 3 1 326 326 (318828)
I0727 15:32:53.300500 30424 layer_factory.hpp:76] Creating layer crop
I0727 15:32:53.300504 30424 net.cpp:111] Creating Layer crop
I0727 15:32:53.300508 30424 net.cpp:478] crop <- score-dsn2_2-up
I0727 15:32:53.300513 30424 net.cpp:478] crop <- input_sat_input_sat_0_split_4
I0727 15:32:53.300516 30424 net.cpp:434] crop -> upscore-dsn2_2
I0727 15:32:53.300547 30424 net.cpp:156] Setting up crop
I0727 15:32:53.300551 30424 net.cpp:164] Top shape: 3 1 256 256 (196608)
I0727 15:32:53.300554 30424 layer_factory.hpp:76] Creating layer score-dsn3_1
I0727 15:32:53.300559 30424 net.cpp:111] Creating Layer score-dsn3_1
I0727 15:32:53.300562 30424 net.cpp:478] score-dsn3_1 <- conv3_1_relu3_1_0_split_1
I0727 15:32:53.300566 30424 net.cpp:434] score-dsn3_1 -> score-dsn3_1
I0727 15:32:53.300611 30424 net.cpp:156] Setting up score-dsn3_1
I0727 15:32:53.300616 30424 net.cpp:164] Top shape: 3 1 81 81 (19683)
I0727 15:32:53.300621 30424 layer_factory.hpp:76] Creating layer upsample_4-3_1
I0727 15:32:53.300626 30424 net.cpp:111] Creating Layer upsample_4-3_1
I0727 15:32:53.300628 30424 net.cpp:478] upsample_4-3_1 <- score-dsn3_1
I0727 15:32:53.300632 30424 net.cpp:434] upsample_4-3_1 -> score-dsn3_1-up
I0727 15:32:53.300729 30424 net.cpp:156] Setting up upsample_4-3_1
I0727 15:32:53.300734 30424 net.cpp:164] Top shape: 3 1 328 328 (322752)
I0727 15:32:53.300740 30424 layer_factory.hpp:76] Creating layer crop
I0727 15:32:53.300743 30424 net.cpp:111] Creating Layer crop
I0727 15:32:53.300746 30424 net.cpp:478] crop <- score-dsn3_1-up
I0727 15:32:53.300750 30424 net.cpp:478] crop <- input_sat_input_sat_0_split_5
I0727 15:32:53.300753 30424 net.cpp:434] crop -> upscore-dsn3_1
I0727 15:32:53.300784 30424 net.cpp:156] Setting up crop
I0727 15:32:53.300788 30424 net.cpp:164] Top shape: 3 1 256 256 (196608)
I0727 15:32:53.300791 30424 layer_factory.hpp:76] Creating layer score-dsn3_2
I0727 15:32:53.300796 30424 net.cpp:111] Creating Layer score-dsn3_2
I0727 15:32:53.300798 30424 net.cpp:478] score-dsn3_2 <- conv3_2_relu3_2_0_split_1
I0727 15:32:53.300802 30424 net.cpp:434] score-dsn3_2 -> score-dsn3_2
I0727 15:32:53.300843 30424 net.cpp:156] Setting up score-dsn3_2
I0727 15:32:53.300848 30424 net.cpp:164] Top shape: 3 1 81 81 (19683)
I0727 15:32:53.300851 30424 layer_factory.hpp:76] Creating layer upsample_4-3_2
I0727 15:32:53.300855 30424 net.cpp:111] Creating Layer upsample_4-3_2
I0727 15:32:53.300858 30424 net.cpp:478] upsample_4-3_2 <- score-dsn3_2
I0727 15:32:53.300863 30424 net.cpp:434] upsample_4-3_2 -> score-dsn3_2-up
I0727 15:32:53.301237 30424 net.cpp:156] Setting up upsample_4-3_2
I0727 15:32:53.301245 30424 net.cpp:164] Top shape: 3 1 328 328 (322752)
I0727 15:32:53.301251 30424 layer_factory.hpp:76] Creating layer crop
I0727 15:32:53.301255 30424 net.cpp:111] Creating Layer crop
I0727 15:32:53.301259 30424 net.cpp:478] crop <- score-dsn3_2-up
I0727 15:32:53.301262 30424 net.cpp:478] crop <- input_sat_input_sat_0_split_6
I0727 15:32:53.301266 30424 net.cpp:434] crop -> upscore-dsn3_2
I0727 15:32:53.301301 30424 net.cpp:156] Setting up crop
I0727 15:32:53.301304 30424 net.cpp:164] Top shape: 3 1 256 256 (196608)
I0727 15:32:53.301306 30424 layer_factory.hpp:76] Creating layer score-dsn3_3
I0727 15:32:53.301311 30424 net.cpp:111] Creating Layer score-dsn3_3
I0727 15:32:53.301314 30424 net.cpp:478] score-dsn3_3 <- conv3_3_relu3_3_0_split_1
I0727 15:32:53.301318 30424 net.cpp:434] score-dsn3_3 -> score-dsn3_3
I0727 15:32:53.301362 30424 net.cpp:156] Setting up score-dsn3_3
I0727 15:32:53.301367 30424 net.cpp:164] Top shape: 3 1 81 81 (19683)
I0727 15:32:53.301372 30424 layer_factory.hpp:76] Creating layer upsample_4-3_3
I0727 15:32:53.301375 30424 net.cpp:111] Creating Layer upsample_4-3_3
I0727 15:32:53.301378 30424 net.cpp:478] upsample_4-3_3 <- score-dsn3_3
I0727 15:32:53.301383 30424 net.cpp:434] upsample_4-3_3 -> score-dsn3_3-up
I0727 15:32:53.301477 30424 net.cpp:156] Setting up upsample_4-3_3
I0727 15:32:53.301482 30424 net.cpp:164] Top shape: 3 1 328 328 (322752)
I0727 15:32:53.301487 30424 layer_factory.hpp:76] Creating layer crop
I0727 15:32:53.301497 30424 net.cpp:111] Creating Layer crop
I0727 15:32:53.301501 30424 net.cpp:478] crop <- score-dsn3_3-up
I0727 15:32:53.301504 30424 net.cpp:478] crop <- input_sat_input_sat_0_split_7
I0727 15:32:53.301508 30424 net.cpp:434] crop -> upscore-dsn3_3
I0727 15:32:53.301542 30424 net.cpp:156] Setting up crop
I0727 15:32:53.301545 30424 net.cpp:164] Top shape: 3 1 256 256 (196608)
I0727 15:32:53.301548 30424 layer_factory.hpp:76] Creating layer score-dsn4_1
I0727 15:32:53.301553 30424 net.cpp:111] Creating Layer score-dsn4_1
I0727 15:32:53.301555 30424 net.cpp:478] score-dsn4_1 <- conv4_1_relu4_1_0_split_1
I0727 15:32:53.301559 30424 net.cpp:434] score-dsn4_1 -> score-dsn4_1
I0727 15:32:53.301604 30424 net.cpp:156] Setting up score-dsn4_1
I0727 15:32:53.301607 30424 net.cpp:164] Top shape: 3 1 41 41 (5043)
I0727 15:32:53.301612 30424 layer_factory.hpp:76] Creating layer upsample_8-4_1
I0727 15:32:53.301616 30424 net.cpp:111] Creating Layer upsample_8-4_1
I0727 15:32:53.301620 30424 net.cpp:478] upsample_8-4_1 <- score-dsn4_1
I0727 15:32:53.301623 30424 net.cpp:434] upsample_8-4_1 -> score-dsn4_1-up
I0727 15:32:53.301997 30424 net.cpp:156] Setting up upsample_8-4_1
I0727 15:32:53.302007 30424 net.cpp:164] Top shape: 3 1 336 336 (338688)
I0727 15:32:53.302012 30424 layer_factory.hpp:76] Creating layer crop
I0727 15:32:53.302017 30424 net.cpp:111] Creating Layer crop
I0727 15:32:53.302021 30424 net.cpp:478] crop <- score-dsn4_1-up
I0727 15:32:53.302024 30424 net.cpp:478] crop <- input_sat_input_sat_0_split_8
I0727 15:32:53.302028 30424 net.cpp:434] crop -> upscore-dsn4_1
I0727 15:32:53.302064 30424 net.cpp:156] Setting up crop
I0727 15:32:53.302068 30424 net.cpp:164] Top shape: 3 1 256 256 (196608)
I0727 15:32:53.302072 30424 layer_factory.hpp:76] Creating layer score-dsn4_2
I0727 15:32:53.302076 30424 net.cpp:111] Creating Layer score-dsn4_2
I0727 15:32:53.302079 30424 net.cpp:478] score-dsn4_2 <- conv4_2_relu4_2_0_split_1
I0727 15:32:53.302083 30424 net.cpp:434] score-dsn4_2 -> score-dsn4_2
I0727 15:32:53.302124 30424 net.cpp:156] Setting up score-dsn4_2
I0727 15:32:53.302129 30424 net.cpp:164] Top shape: 3 1 41 41 (5043)
I0727 15:32:53.302134 30424 layer_factory.hpp:76] Creating layer upsample_8-4_2
I0727 15:32:53.302139 30424 net.cpp:111] Creating Layer upsample_8-4_2
I0727 15:32:53.302141 30424 net.cpp:478] upsample_8-4_2 <- score-dsn4_2
I0727 15:32:53.302145 30424 net.cpp:434] upsample_8-4_2 -> score-dsn4_2-up
I0727 15:32:53.302237 30424 net.cpp:156] Setting up upsample_8-4_2
I0727 15:32:53.302242 30424 net.cpp:164] Top shape: 3 1 336 336 (338688)
I0727 15:32:53.302245 30424 layer_factory.hpp:76] Creating layer crop
I0727 15:32:53.302249 30424 net.cpp:111] Creating Layer crop
I0727 15:32:53.302253 30424 net.cpp:478] crop <- score-dsn4_2-up
I0727 15:32:53.302255 30424 net.cpp:478] crop <- input_sat_input_sat_0_split_9
I0727 15:32:53.302259 30424 net.cpp:434] crop -> upscore-dsn4_2
I0727 15:32:53.302296 30424 net.cpp:156] Setting up crop
I0727 15:32:53.302299 30424 net.cpp:164] Top shape: 3 1 256 256 (196608)
I0727 15:32:53.302302 30424 layer_factory.hpp:76] Creating layer score-dsn4_3
I0727 15:32:53.302306 30424 net.cpp:111] Creating Layer score-dsn4_3
I0727 15:32:53.302309 30424 net.cpp:478] score-dsn4_3 <- conv4_3_relu4_3_0_split_1
I0727 15:32:53.302314 30424 net.cpp:434] score-dsn4_3 -> score-dsn4_3
I0727 15:32:53.302350 30424 net.cpp:156] Setting up score-dsn4_3
I0727 15:32:53.302356 30424 net.cpp:164] Top shape: 3 1 41 41 (5043)
I0727 15:32:53.302359 30424 layer_factory.hpp:76] Creating layer upsample_8-4_3
I0727 15:32:53.302363 30424 net.cpp:111] Creating Layer upsample_8-4_3
I0727 15:32:53.302366 30424 net.cpp:478] upsample_8-4_3 <- score-dsn4_3
I0727 15:32:53.302371 30424 net.cpp:434] upsample_8-4_3 -> score-dsn4_3-up
I0727 15:32:53.302729 30424 net.cpp:156] Setting up upsample_8-4_3
I0727 15:32:53.302737 30424 net.cpp:164] Top shape: 3 1 336 336 (338688)
I0727 15:32:53.302742 30424 layer_factory.hpp:76] Creating layer crop
I0727 15:32:53.302747 30424 net.cpp:111] Creating Layer crop
I0727 15:32:53.302753 30424 net.cpp:478] crop <- score-dsn4_3-up
I0727 15:32:53.302757 30424 net.cpp:478] crop <- input_sat_input_sat_0_split_10
I0727 15:32:53.302762 30424 net.cpp:434] crop -> upscore-dsn4_3
I0727 15:32:53.302803 30424 net.cpp:156] Setting up crop
I0727 15:32:53.302808 30424 net.cpp:164] Top shape: 3 1 256 256 (196608)
I0727 15:32:53.302809 30424 layer_factory.hpp:76] Creating layer score-dsn5_1
I0727 15:32:53.302814 30424 net.cpp:111] Creating Layer score-dsn5_1
I0727 15:32:53.302817 30424 net.cpp:478] score-dsn5_1 <- conv5_1_relu5_1_0_split_1
I0727 15:32:53.302821 30424 net.cpp:434] score-dsn5_1 -> score-dsn5_1
I0727 15:32:53.302855 30424 net.cpp:156] Setting up score-dsn5_1
I0727 15:32:53.302860 30424 net.cpp:164] Top shape: 3 1 21 21 (1323)
I0727 15:32:53.302865 30424 layer_factory.hpp:76] Creating layer upsample_16-5_1
I0727 15:32:53.302868 30424 net.cpp:111] Creating Layer upsample_16-5_1
I0727 15:32:53.302871 30424 net.cpp:478] upsample_16-5_1 <- score-dsn5_1
I0727 15:32:53.302875 30424 net.cpp:434] upsample_16-5_1 -> score-dsn5_1-up
I0727 15:32:53.302976 30424 net.cpp:156] Setting up upsample_16-5_1
I0727 15:32:53.302981 30424 net.cpp:164] Top shape: 3 1 352 352 (371712)
I0727 15:32:53.302991 30424 layer_factory.hpp:76] Creating layer crop
I0727 15:32:53.302995 30424 net.cpp:111] Creating Layer crop
I0727 15:32:53.302999 30424 net.cpp:478] crop <- score-dsn5_1-up
I0727 15:32:53.303002 30424 net.cpp:478] crop <- input_sat_input_sat_0_split_11
I0727 15:32:53.303005 30424 net.cpp:434] crop -> upscore-dsn5_1
I0727 15:32:53.303046 30424 net.cpp:156] Setting up crop
I0727 15:32:53.303050 30424 net.cpp:164] Top shape: 3 1 256 256 (196608)
I0727 15:32:53.303053 30424 layer_factory.hpp:76] Creating layer score-dsn5_2
I0727 15:32:53.303057 30424 net.cpp:111] Creating Layer score-dsn5_2
I0727 15:32:53.303061 30424 net.cpp:478] score-dsn5_2 <- conv5_2_relu5_2_0_split_1
I0727 15:32:53.303064 30424 net.cpp:434] score-dsn5_2 -> score-dsn5_2
I0727 15:32:53.303094 30424 net.cpp:156] Setting up score-dsn5_2
I0727 15:32:53.303098 30424 net.cpp:164] Top shape: 3 1 21 21 (1323)
I0727 15:32:53.303103 30424 layer_factory.hpp:76] Creating layer upsample_16-5_2
I0727 15:32:53.303107 30424 net.cpp:111] Creating Layer upsample_16-5_2
I0727 15:32:53.303110 30424 net.cpp:478] upsample_16-5_2 <- score-dsn5_2
I0727 15:32:53.303114 30424 net.cpp:434] upsample_16-5_2 -> score-dsn5_2-up
I0727 15:32:53.303485 30424 net.cpp:156] Setting up upsample_16-5_2
I0727 15:32:53.303494 30424 net.cpp:164] Top shape: 3 1 352 352 (371712)
I0727 15:32:53.303500 30424 layer_factory.hpp:76] Creating layer crop
I0727 15:32:53.303504 30424 net.cpp:111] Creating Layer crop
I0727 15:32:53.303508 30424 net.cpp:478] crop <- score-dsn5_2-up
I0727 15:32:53.303511 30424 net.cpp:478] crop <- input_sat_input_sat_0_split_12
I0727 15:32:53.303515 30424 net.cpp:434] crop -> upscore-dsn5_2
I0727 15:32:53.303560 30424 net.cpp:156] Setting up crop
I0727 15:32:53.303563 30424 net.cpp:164] Top shape: 3 1 256 256 (196608)
I0727 15:32:53.303566 30424 layer_factory.hpp:76] Creating layer score-dsn5_3
I0727 15:32:53.303571 30424 net.cpp:111] Creating Layer score-dsn5_3
I0727 15:32:53.303575 30424 net.cpp:478] score-dsn5_3 <- conv5_3
I0727 15:32:53.303578 30424 net.cpp:434] score-dsn5_3 -> score-dsn5_3
I0727 15:32:53.303611 30424 net.cpp:156] Setting up score-dsn5_3
I0727 15:32:53.303617 30424 net.cpp:164] Top shape: 3 1 21 21 (1323)
I0727 15:32:53.303620 30424 layer_factory.hpp:76] Creating layer upsample_16-5_3
I0727 15:32:53.303625 30424 net.cpp:111] Creating Layer upsample_16-5_3
I0727 15:32:53.303628 30424 net.cpp:478] upsample_16-5_3 <- score-dsn5_3
I0727 15:32:53.303632 30424 net.cpp:434] upsample_16-5_3 -> score-dsn5_3-up
I0727 15:32:53.303735 30424 net.cpp:156] Setting up upsample_16-5_3
I0727 15:32:53.303740 30424 net.cpp:164] Top shape: 3 1 352 352 (371712)
I0727 15:32:53.303743 30424 layer_factory.hpp:76] Creating layer crop
I0727 15:32:53.303747 30424 net.cpp:111] Creating Layer crop
I0727 15:32:53.303750 30424 net.cpp:478] crop <- score-dsn5_3-up
I0727 15:32:53.303756 30424 net.cpp:478] crop <- input_sat_input_sat_0_split_13
I0727 15:32:53.303761 30424 net.cpp:434] crop -> upscore-dsn5_3
I0727 15:32:53.303804 30424 net.cpp:156] Setting up crop
I0727 15:32:53.303807 30424 net.cpp:164] Top shape: 3 1 256 256 (196608)
I0727 15:32:53.303810 30424 layer_factory.hpp:76] Creating layer concat-conv-pooling
I0727 15:32:53.303817 30424 net.cpp:111] Creating Layer concat-conv-pooling
I0727 15:32:53.303819 30424 net.cpp:478] concat-conv-pooling <- upscore-dsn1_1
I0727 15:32:53.303822 30424 net.cpp:478] concat-conv-pooling <- upscore-dsn1_2
I0727 15:32:53.303825 30424 net.cpp:478] concat-conv-pooling <- upscore-dsn2_1
I0727 15:32:53.303829 30424 net.cpp:478] concat-conv-pooling <- upscore-dsn2_2
I0727 15:32:53.303833 30424 net.cpp:478] concat-conv-pooling <- upscore-dsn3_1
I0727 15:32:53.303835 30424 net.cpp:478] concat-conv-pooling <- upscore-dsn3_2
I0727 15:32:53.303838 30424 net.cpp:478] concat-conv-pooling <- upscore-dsn3_3
I0727 15:32:53.303840 30424 net.cpp:478] concat-conv-pooling <- upscore-dsn4_1
I0727 15:32:53.303843 30424 net.cpp:478] concat-conv-pooling <- upscore-dsn4_2
I0727 15:32:53.303846 30424 net.cpp:478] concat-conv-pooling <- upscore-dsn4_3
I0727 15:32:53.303848 30424 net.cpp:478] concat-conv-pooling <- upscore-dsn5_1
I0727 15:32:53.303851 30424 net.cpp:478] concat-conv-pooling <- upscore-dsn5_2
I0727 15:32:53.303854 30424 net.cpp:478] concat-conv-pooling <- upscore-dsn5_3
I0727 15:32:53.303858 30424 net.cpp:434] concat-conv-pooling -> concat-conv-pooling
I0727 15:32:53.303864 30424 net.cpp:156] Setting up concat-conv-pooling
I0727 15:32:53.303867 30424 net.cpp:164] Top shape: 3 13 256 256 (2555904)
I0727 15:32:53.303870 30424 layer_factory.hpp:76] Creating layer new-score-weighting-conv-pooling
I0727 15:32:53.303875 30424 net.cpp:111] Creating Layer new-score-weighting-conv-pooling
I0727 15:32:53.303877 30424 net.cpp:478] new-score-weighting-conv-pooling <- concat-conv-pooling
I0727 15:32:53.303881 30424 net.cpp:434] new-score-weighting-conv-pooling -> upscore-concat-conv-pooling
I0727 15:32:53.303961 30424 net.cpp:156] Setting up new-score-weighting-conv-pooling
I0727 15:32:53.303966 30424 net.cpp:164] Top shape: 3 1 256 256 (196608)
I0727 15:32:53.303971 30424 layer_factory.hpp:76] Creating layer upscore-concat-conv-pooling_new-score-weighting-conv-pooling_0_split
I0727 15:32:53.303974 30424 net.cpp:111] Creating Layer upscore-concat-conv-pooling_new-score-weighting-conv-pooling_0_split
I0727 15:32:53.303977 30424 net.cpp:478] upscore-concat-conv-pooling_new-score-weighting-conv-pooling_0_split <- upscore-concat-conv-pooling
I0727 15:32:53.303982 30424 net.cpp:434] upscore-concat-conv-pooling_new-score-weighting-conv-pooling_0_split -> upscore-concat-conv-pooling_new-score-weighting-conv-pooling_0_split_0
I0727 15:32:53.303985 30424 net.cpp:434] upscore-concat-conv-pooling_new-score-weighting-conv-pooling_0_split -> upscore-concat-conv-pooling_new-score-weighting-conv-pooling_0_split_1
I0727 15:32:53.303990 30424 net.cpp:156] Setting up upscore-concat-conv-pooling_new-score-weighting-conv-pooling_0_split
I0727 15:32:53.303994 30424 net.cpp:164] Top shape: 3 1 256 256 (196608)
I0727 15:32:53.303997 30424 net.cpp:164] Top shape: 3 1 256 256 (196608)
I0727 15:32:53.303999 30424 layer_factory.hpp:76] Creating layer predict_loss
I0727 15:32:53.304004 30424 net.cpp:111] Creating Layer predict_loss
I0727 15:32:53.304008 30424 net.cpp:478] predict_loss <- upscore-concat-conv-pooling_new-score-weighting-conv-pooling_0_split_0
I0727 15:32:53.304011 30424 net.cpp:478] predict_loss <- input_map_input_map_0_split_0
I0727 15:32:53.304014 30424 net.cpp:434] predict_loss -> predict_loss
I0727 15:32:53.304419 30424 net.cpp:156] Setting up predict_loss
I0727 15:32:53.304427 30424 net.cpp:164] Top shape: (1)
I0727 15:32:53.304430 30424 net.cpp:169]     with loss weight 1
I0727 15:32:53.304438 30424 layer_factory.hpp:76] Creating layer sigmoid
I0727 15:32:53.304445 30424 net.cpp:111] Creating Layer sigmoid
I0727 15:32:53.304447 30424 net.cpp:478] sigmoid <- upscore-concat-conv-pooling_new-score-weighting-conv-pooling_0_split_1
I0727 15:32:53.304455 30424 net.cpp:434] sigmoid -> bigscore
I0727 15:32:53.304600 30424 net.cpp:156] Setting up sigmoid
I0727 15:32:53.304607 30424 net.cpp:164] Top shape: 3 1 256 256 (196608)
I0727 15:32:53.304610 30424 layer_factory.hpp:76] Creating layer precision_recall_loss
I0727 15:32:53.304615 30424 net.cpp:111] Creating Layer precision_recall_loss
I0727 15:32:53.304618 30424 net.cpp:478] precision_recall_loss <- bigscore
I0727 15:32:53.304622 30424 net.cpp:478] precision_recall_loss <- input_map_input_map_0_split_1
I0727 15:32:53.304626 30424 net.cpp:434] precision_recall_loss -> error_rate
…
